happy98/model.pt (torch, 104205 bytes, 158 tensors)

conv1.weight f4 [16, 1, 5, 5]
00000000: 9f81 7b3e fa17 833e ef5f 243e e439 783e
00000010: 87a6 c23d 77ad 1a3e 8082 033e 6729 6f3e
00000020: abdd 8a3e 10b7 d53d 1302 1d3e 6b42 0f3e
00000030: 9985 543e e142 3f3e ae9a 4e3e 4257 db3b
00000040: e409 153e 1e11 0b3e a86c cb3d f54d 173e
00000050: 435d e1bd e2a4 d63c bbbe 983d 62a0 453e
00000060: 0f47 0c3d c112 14be 8fce f7bd d601 25be
00000070: 2b48 efbd 211a 80be 9f9b 9cbc 0936 23be
00000080: 30dc 17bd 4964 c0bd 634e 21be b7bf 17bd
00000090: e249 95bd 8632 50bd e23f fbbd a204 33be
000000a0: 184d f7bd d9e4 2abe 706c eabd 914b bbbd
000000b0: 494c 17be 4fc8 88be c8fc 0abe a74c 24be
000000c0: 63e9 0ebe e848 8ebe 7c48 923d b3e2 153e
000000d0: f997 083e 4be1 9c3e bf3c 8f3e bac7 523e
000000e0: 6ca0 5f3e 68cb 503e f07c 993e 8a57 453e
000000f0: 1a35 4e3e 10e3 163e 9e88 743e 3660 5a3e
00000100: f934 9a3e 4a1f 323e 11ad 8f3e 3f92 263e
00000110: d54d 453e c431 5c3e ef4b 733e 0208 4c3e
00000120: 8f6c 883e 17e6 123e 40eb 1d3e e710 073f
00000130: 467a 043f d2e3 243f 3133 363f 5a37 573f
00000140: 8b6f 0d3f e473 003f 0118 213f 4aba 163f
00000150: c07a 423f 04d8 2d3f c4f7 313f 1214 173f
00000160: db21 2d3f 361b 563f 2937 393f 656a 253f
00000170: c2a7 333f 3264 443f 46a3 3c3f 311b 313f
00000180: bf51 3a3f 3459 113f 5cb0 213f d8ef 303f
00000190: d63b 02be ff2f 09be ca47 16be 1932 3bbe
000001a0: 469c 5fbd cc83 12be aa98 87be c51a 72be
000001b0: 5913 8abe aa3d 58be 149f f53c cda0 2bbe
000001c0: 2b1c 2fbe a0db 94be 576c 78be e20d b9bd
000001d0: 96a8 31be 772d a7be 8ec1 9fbe 1125 97be
000001e0: 58e4 4e3d 6078 0dbe 7b80 51be b96f 90be
000001f0: 6f4e 76be 99e7 afbd 2d03 e8bc 0e40 8ebd
00000200: 0dcb ab3d 5789 9f3c f43a 813d 3ea2 323d
00000210: 8a05 3fbd 5739 ca3d ecac e63c 6b0f 70bd
00000220: 16b7 48bd 9fa0 24bd 55f6 9b3d 4b6d 213d
00000230: ab83 623d d9d7 aabb ba82 173e 3031 023d
00000240: a5cb d33d 9630 bd3c 70de 943d ff5d d63d
00000250: cd98 f33d df17 8c3a f047 44bd 0b53 0ebe
00000260: b058 f1bd 70b3 2cbe 7fc8 433c f653 14be
00000270: 3637 a0bd 00c9 c7bd 747c cfbd dcea 20be
00000280: 5477 8bbc 8219 f9bd 113f 00be 4359 66be
00000290: 322d c7bd 57a2 b4bd 4ab1 1fbe 379b 96bd
000002a0: 84f9 0cbe f2b7 36be 1ed4 59bd 75e7 a9bd
000002b0: 236c b3bd 5cf6 32be e99f 30be 9444 083e
000002c0: 4ff6 9a3d 01b7 323e f6f8 613e 566f ad3d
000002d0: 14f5 2b3e ee0c 2c3e a7ac 143e de48 df3d
000002e0: 8a01 523e ebbe 3a3e 42b0 133e e578 db3d
000002f0: aa93 ed3d 8293 2e3e 8852 d63d f877 a53d
00000300: bd6b 1c3e fa00 3a3e e8b7 003e 9c70 d13d
00000310: 8bf4 c83d db35 893d b115 d13d d797 083e
00000320: be93 ddbe 2556 10bf f437 ecbe ef46 f3be
00000330: 2545 c4be 5e2e b7be 1e31 1cbf 098b 32bf
00000340: d593 2ebf 5cff 09bf 5daf bdbd 211c d5be
00000350: 85e2 24bf 4fca 2fbf 2412 17bf c6d1 88bd
00000360: eb22 edbe f33e 33bf daa3 39bf d8a5 3abf
00000370: 743f 8f3c 907f 7fbe 2d28 21bf 1f76 2dbf
00000380: 7793 29bf aa5e 493d c535 19bb f61a 1cbd
00000390: b0d5 efbd 5084 d4bd 69c3 acbd 9710 e5bc
000003a0: ad85 66bd ccc9 f0bc 31d0 d7bc e426 893d
000003b0: e1a7 55bd d0ba 00be 7436 14be 265c 00be
000003c0: ffe4 a83d a939 b8bd e2d6 f8bd 51d4 2cbe
000003d0: 878f d3bd 7163 9a3d 3509 5fbd 3d90 75bd
000003e0: f5a4 09be ae03 b2bc 704b 3c3c 3312 dbbc
000003f0: 3e64 0b3d b70a ef3c 0898 9f3d 0399 efbc
0.24561165 0.2560423 0.16052221 0.24240834 0.09504419 0.15105234 0.1284275 0.23355637
0.27122244 0.10435307 0.15332823 0.1399018 0.20754088 0.18677856 0.20176193 0.0066937516
0.14554554 0.13580748 0.09932834 0.14775832 -0.110041164 0.02620167 0.07458254 0.19299462
0.034247454 -0.14460279 -0.12099945 -0.16113982 -0.11683687 -0.25019935 -0.019117175 -0.15938582
-0.03707522 -0.09394128 -0.15752558 -0.037048068 -0.07289483 -0.050829433 -0.12268044 -0.17482236
-0.12075251 -0.16688861 -0.11446464 -0.091452725 -0.14775194 -0.26715323 -0.13572991 -0.16044866
-0.13956217 -0.27789998 0.071427315 0.1463726 0.13339223 0.30640635 0.27976033 0.20584002
0.2183854 0.20390093 0.29978132 0.19271675 0.20137444 0.14735055 0.2388024 0.21325764
0.3011854 0.17394748 0.28061727 0.16266726 0.19267972 0.21503359 0.23759435 0.1992493
0.26645324 0.14345585 0.15421772 0.52760166 0.51749074 0.64410126 0.7117186 0.84068835
0.55248326 0.50176835 0.6292725 0.58878005 0.7596855 0.6790774 0.69518685 0.59015
0.67629784 0.8363527 0.7234979 0.6461547 0.70177853 0.76715386 0.73686635 0.69182116
0.72780985 0.5677674 0.6315973 0.6911597 -0.12718138 -0.13397215 -0.14675823 -0.1828083
-0.054592393 -0.14308089 -0.2648366 -0.23643024 -0.26967886 -0.21117273 0.02998308 -0.1676056
-0.17100589 -0.2907381 -0.24260078 -0.09035851 -0.17349467 -0.32651874 -0.31202358 -0.29520467
0.050510734 -0.1381545 -0.20459168 -0.28210238 -0.24053358 -0.085890956 -0.028321827 -0.06945811
0.08388338 0.019474668 0.063100725 0.043611757 -0.04663614 0.09874218 0.028158627 -0.058608454
-0.04900273 -0.040192243 0.076153435 0.03941087 0.05530135 -0.0052137193 0.14795962 0.03178519
0.103415765 0.023094457 0.07268989 0.10467147 0.11894379 0.0010688266 -0.047920167 -0.13898866
-0.11784494 -0.16865325 0.011949657 -0.14485154 -0.07823031 -0.097551346 -0.101311594 -0.15714592
-0.017024674 -0.12163068 -0.12524058 -0.22494988 -0.09725417 -0.08820026 -0.15594974 -0.07353824
-0.13767058 -0.17843607 -0.053180806 -0.082961 -0.0876086 -0.17476791 -0.17248501 0.1330741
0.07566511 0.17452623 0.22067627 0.08468501 0.16792709 0.16801807 0.14518987 0.1090257
0.205084 0.18236892 0.14422706 0.10716418 0.1160043 0.17048457 0.1046496 0.08079523
0.15275474 0.18164435 0.12570155 0.10226557 0.09812268 0.06699725 0.102092154 0.13339172
-0.4327678 -0.56381446 -0.4613644 -0.47515056 -0.38334003 -0.35777563 -0.61012447 -0.697434
-0.68194324 -0.5390527 -0.092619635 -0.41623023 -0.6440814 -0.68668073 -0.59012055 -0.06680636
-0.46315703 -0.7001793 -0.7251564 -0.7290931 0.017486311 -0.24951005 -0.6295193 -0.67758363
-0.6624064 0.049162544 -0.0023377996 -0.03811165 -0.117106795 -0.10376799 -0.08435709 -0.027962012
-0.056279827 -0.0293931 -0.02634439 0.06696871 -0.052162055 -0.12571263 -0.14473897 -0.12535152
0.082468025 -0.08995373 -0.12150361 -0.16877867 -0.1033011 0.07538498 -0.05445214 -0.05995201
-0.13441832 -0.02173027 0.011492595 -0.026742077 0.034031145 0.029179914 0.077926695 -0.029247766

conv1.bias f4 [16]
00000000: a97c cabc de60 743d 8c98 e63b a69b 823b
00000010: ca19 b2bc 6ad7 a3bd 2a1d aabd aef7 2cbd
00000020: 15ef 37bd d877 e13c 83ac d2bc d88f 0dbd
00000030: 327f ac3d 0a14 fc3c e9fa 803d 872c 2fbd
-0.024717646 0.059662692 0.007037228 0.00398584 -0.021740813 -0.08000071 -0.08306344 -0.042228393
-0.04490574 0.027522966 -0.025717026 -0.03456101 0.08422698 0.030771274 0.06297857 -0.042767074

block1_1.freq_dw_conv.weight f4 [8, 1, 3, 1]
00000000: b21a 5abe 5d45 34bc a004 a4be 34be 0c3f
00000010: 0bd1 a4be 1999 32bf 871a 07bf 13fa 933d
00000020: 409f 833f ec59 9c3c 0b56 b6be 46b0 83be
00000030: 91c2 3d3e ae06 b23d 6a25 b43e b30d 013e
00000040: 01e2 2dbf 6a35 353e f8a4 93bf 7ba0 87be
00000050: faba 3b3f f14f 2b3c bbe6 043d cc28 2d3e
-0.21299246 -0.011002866 -0.3203478 0.54977727 -0.32190737 -0.6976486 -0.5277485 0.07225432
1.0282974 0.019085847 -0.3561252 -0.25720423 0.18531252 0.0869268 0.35184795 0.12602882
-0.6792298 0.17696157 -1.153472 -0.26489624 0.7333218 0.010456071 0.032446604 0.16910094

block1_1.ssn.bn.weight f4 [40]
00000000: a9c6 0f3f 22c5 8f3e e0cc 9e3e 489e e53e
00000010: d362 163f 6c3e c33e da40 3a3f bd24 223f
00000020: f13a bf3e c168 cd3e cb4d c73e 755e cd3d
00000030: 7b7b 1a3f aa54 2b3d 4603 6c3f 979a 0e3f
00000040: 26bd e33e 62c5 aa3e 6302 c23e 3da7 073f
00000050: 3129 aa3d f783 363f 1979 e73e 2530 243f
00000060: 36ea d63e b4c5 0f3f c768 173f 100f 5d3f
00000070: 5450 1e3f 2e19 173f c826 103f 43dd 413f
00000080: 9a1b 7e3f b555 173e df6a 5d3f 1ff0 b33e
00000090: ffb0 c73e 972c a33e c887 e03e b20c ee3e
0.56162506 0.28080088 0.31015682 0.44847322 0.58744544 0.38133562 0.72755206 0.6333731
0.37349656 0.40118983 0.3892654 0.10027782 0.60344666 0.04182879 0.92192495 0.55704635
0.44480246 0.33353716 0.37892446 0.5298956 0.08308638 0.7129511 0.45209578 0.6413596
0.41975564 0.56161046 0.5914425 0.8635111 0.6184132 0.59022796 0.56309175 0.75728244
0.99260867 0.14778788 0.864912 0.35144135 0.39002225 0.31869957 0.43853593 0.4649406

block1_1.ssn.bn.bias f4 [40]
00000000: dff2 173e a458 8d3e 1a28 09be c13f d33d
00000010: ae80 453e ef80 093d 31b8 a73d 7045 9e3e
00000020: 381d 913e 5206 1d3e 40b3 fabb ab70 b9be
00000030: b230 d03b 6f11 80be 11c1 843e 41fc 29bd
00000040: 1bf1 ca3e e4ad f93c b20b cc3d 557f 373e
00000050: b443 50be a427 4a3d 599c 553d ac34 5a3c
00000060: a381 f8bd dc21 f73e 8304 bd3e 1689 b53e
00000070: 690e 043f 5595 c73e 1223 8f3d 3607 663f
00000080: 431f 9f3f 5951 90be b706 023e e60b b0bb
00000090: 4043 c3bc 462c 64bd b219 e0bc 13a5 883c
0.14838742 0.2760669 -0.13394204 0.103148945 0.19287369 0.033570226 0.081894286 0.30912352
0.28342605 0.15334442 -0.007650763 -0.3621877 0.006353461 -0.250133 0.25928548 -0.041500334
0.39637074 0.030478425 0.09963168 0.17919667 -0.20338327 0.04935421 0.052151058 0.013318222
-0.12134101 0.4826802 0.36917505 0.3545615 0.5158449 0.3898112 0.06989111 0.89854753
1.2431415 -0.28187063 0.12697874 -0.005372512 -0.023835778 -0.055706285 -0.027356002 0.016680276

block1_1.ssn.bn.running_mean f4 [40]
00000000: d888 17be 27f1 65be 8a2b 85be 2580 94be
00000010: cc63 8dbe 7dbb 84be ee12 8bbe 6fb4 8fbe
00000020: b871 a8be 85db 47be 2ea9 b13e a13d b23e
00000030: ae3e b73e 90d7 cb3e 81c9 623e dd0e 82bd
00000040: 9475 d3bd c587 03be ca3d 22be a7ab 24be
00000050: d372 e33d 389c d13d 7c9d c03d dbd8 b93d
00000060: 31ed 9d3d 00b0 d6be 4dcf a7be d19a 9abe
00000070: 3a16 93be b110 91be e66d 22bf d5f7 5ebf
00000080: a79c 40bf ee1c 3bbf 74ed 46bf 1988 b93c
00000090: b035 0c3d 0ada 283d 9bad 4f3d 9ab1 373d
-0.14798295 -0.22455274 -0.2600978 -0.29004017 -0.276152 -0.25924292 -0.2716288 -0.28067347
-0.3289926 -0.19517334 0.34699386 0.34812644 0.35790008 0.398129 0.2214718 -0.06350491
-0.103251606 -0.1284476 -0.15843883 -0.16081105 0.11105885 0.102348745 0.09405038 0.09074565
0.07711256 -0.41931152 -0.32775345 -0.3019624 -0.28727895 -0.28333047 -0.6344894 -0.8709691
-0.7523903 -0.7309102 -0.77706075 0.022647904 0.034230888 0.041223563 0.050702672 0.04484711

block1_1.ssn.bn.running_var f4 [40]
00000000: fef1 093d f889 4a3d 2fda 5c3d a20a 703d
00000010: 2ac5 5f3d 7ec7 d73d cdbf 853d 0177 893d
00000020: 68d6 983d 3bb8 ff3d 02b4 be3d 3bfb 823d
00000030: 2714 873d d4c0 963d ad3a 1c3e 7f49 b23c
00000040: e548 063d 97d3 1c3d 8bd1 353d 51bb 1f3d
00000050: 297c 823c f541 953c 84f2 953c a601 963c
00000060: 3077 783c 8ce3 173d 4243 ed3c 2253 003d
00000070: cd9f 083d 348c 433d 9a35 0f3f c9c4 5a3e
00000080: d9e1 6d3e 6d4e 753e 70ab 0b3f 7468 013b
00000090: 7b65 313b 5d40 4b3b 1def 673b 9127 443b
0.033678047 0.049447984 0.053919014 0.05860389 0.05463139 0.10536097 0.06530724 0.06712151
0.0746277 0.12486311 0.093116775 0.06395575 0.06595641 0.07360998 0.15256758 0.021763561
0.03278436 0.038287725 0.04438929 0.038997 0.015928345 0.018219927 0.018304117 0.018311333
0.015165135 0.03708224 0.028962735 0.03132928 0.033355523 0.04774113 0.55941164 0.2136413
0.23230685 0.23955698 0.5455847 0.0019746097 0.0027068544 0.0031013705 0.0035390325 0.002993081

block1_1.temp_dw_conv.weight f4 [8, 1, 1, 3]
00000000: 9cab 5fbc f569 833e 0a19 e43d f172 6b3e
00000010: 2b48 393e 1eed 4ebe 3cba d2be 1881 233d
00000020: d2ad 333d 1972 5ebe 3101 af3b 54a6 76be
00000030: d5dd 8ebe d601 41bd 0180 63bd f295 78be
00000040: 610e 8fbe 9fd8 d63d e35a 8cbd 747c 8fbe
00000050: 8a74 94bd d8bf 903d 3a8d a6bd 8a3a d4be
-0.013651755 0.25666776 0.11137588 0.22993065 0.18093936 -0.2020764 -0.4115771 0.039918035
0.04386694 -0.21723212 0.005340718 -0.24086887 -0.2790362 -0.04712089 -0.055541996 -0.2427595
-0.27940658 0.10490536 -0.06853273 -0.28024638 -0.072487906 0.07067841 -0.081324056 -0.41450912

block1_1.bn1.weight f4 [8]
00000000: 2f57 fe3e 7596 243f c29d c83e 379c 3f3f
00000010: 45d4 233f bb22 e73e 7db0 253f b541 053f
0.4967589 0.6429208 0.3918286 0.7484774 0.6399577 0.45143685 0.64722425 0.52053386

block1_1.bn1.bias f4 [8]
00000000: 1c93 c63e 34f7 043f 9199 0c3f 0e72 85be
00000010: 2742 9ebe fb59 4b3f 7791 873f b5df bbbd
0.3878411 0.519397 0.54921824 -0.2606358 -0.30909845 0.79434174 1.0591267 -0.09173528

block1_1.bn1.running_mean f4 [8]
00000000: 0e55 5d42 7cc5 1d43 1dc5 5742 bce6 7444
00000010: e84a 5dc2 7b9f c2c2 8799 aec3 84c9 8441
55.33306 157.77142 53.942493 979.6052 -55.32315 -97.311485 -349.19943 16.598396

block1_1.bn1.running_var f4 [8]
00000000: 0a95 0845 778b 8946 d409 0045 8ded 2449
00000010: 8150 0845 909d f045 9531 a847 92d1 4243
2185.315 17605.732 2048.6143 675544.8 2181.0315 7699.6953 86115.164 194.81863

block1_1.bn2.weight f4 [8]
00000000: ffe9 ac3e 970f 9f3e e717 b53d abae d93c
00000010: 24d6 703e 0521 6f3e 5875 973e 4897 c03e
0.33772275 0.31066582 0.0884245 0.026572546 0.23519188 0.2335244 0.29581714 0.37615418

block1_1.bn2.bias f4 [8]
00000000: 2ff1 9fbd 4bf3 1cbe 89c8 233b 3208 9d3b
00000010: 4c50 3abe 84cf 17be 11b5 01bc 464f 0ebe
-0.07809674 -0.15327184 0.0024991354 0.0047922367 -0.18194693 -0.14825255 -0.007916705 -0.13897428

block1_1.bn2.running_mean f4 [8]
00000000: 91e0 293d 2847 0e3d d7a1 b83c eb12 75bd
00000010: e921 823c 3eb3 36be fdb5 32be dfc6 0d3c
0.04147393 0.03473583 0.022538109 -0.059832495 0.01588531 -0.17841813 -0.17452236 0.008653372

block1_1.bn2.running_var f4 [8]
00000000: bc20 a73c bddc fa3b 32f5 053c 1160 083d
00000010: 27ad f13c 97aa 763d bf0d 453d 22eb b93c
0.020401351 0.0076557086 0.008176135 0.03329474 0.02950151 0.06022128 0.048108812 0.022695128

block1_1.conv1x1_1.weight f4 [8, 16, 1, 1]
00000000: 7781 0ebd 4182 15be 5b80 afbd 6635 633d
00000010: 5e75 7c3e 37e0 26bc 575b ef3d b810 1d3d
00000020: a512 cd3e a1e1 1c3e 2086 6f3b dfcf 093e
00000030: f457 02bd 8e14 cc3d b5bb 8e3c 8a4e b0bd
00000040: 153e 96bd 8b44 fabb 4fd9 debd 2016 3abe
00000050: 9e78 843e 50e3 c3bd 903e 073e e26f c6bd
00000060: ca80 053f afdb 663e a44a 45bb d565 4b3e
00000070: b883 2bbd c22a 503e 5348 b63d f636 d6be
00000080: 559a 493e 4e4a c83d 449a 4d3c b6a9 8bbd
00000090: 54bf 233e 4d32 04be b6b9 be3d 9a4d c03d
000000a0: be75 613e a912 133e cd38 10be b970 5ebd
000000b0: ae3d 8f3d 5480 c23b 66fd 0f3e 3126 c3bd
000000c0: 3199 e6be bfdc c03e 16dd 39bf 68b8 12c0
000000d0: 0d81 283f 6a0a 05be 1280 d53e 0916 e5be
000000e0: f2de d23f bb0a 763e 8851 85be b0d4 8a3d
000000f0: e016 abbd e14c cdbe 44be 353f ca4f 2fc0
00000100: 712b dc3c f8f9 883b 15dc c0bc d343 a3bd
00000110: 88c6 3dbe 55f1 013e fa58 763b 6368 76bc
00000120: c820 cbbe 3b3b 10be 38e3 9abd 47a1 453c
00000130: 3c43 86bd da12 2abe ed60 d7bd 03fd 1e3e
00000140: 6c6a 153f e9d5 073f 9d69 9cbe d906 0bc0
00000150: 0c5d d7bf c44a fa3e 5ba0 2ebf c3d9 1bbf
00000160: 2fb0 64c0 613b dbbf 2749 09bf d1d4 9abf
00000170: 7199 0bbf d02e fabf 8e41 543e 872f 6b3d
00000180: 29c4 bc3e ebf3 96bc 64f2 103e 295d f33e
00000190: 9fae c5be 1b44 a73b 459b 44be 011a 073e
000001a0: 361c 80bf d704 38be 71ab 45bd 53a0 28be
000001b0: 9177 4b3d c995 03be 90a1 45be 4833 833f
000001c0: 476e 47bd 32c6 783d 13e9 9cbd 796c 8dbd
000001d0: d2ff 9f3d 57eb d3bd ada9 0e3d 5228 ac3d
000001e0: 1b09 9e3d c8a0 873d b53c 64bd 7eca 1e3d
000001f0: 821a 0dbc 8fbf 4e3d a406 1e3d 15c6 6e3d
-0.034791436 -0.14600469 -0.08569404 0.055470847 0.24654147 -0.010185293 0.116873436 0.038346022
0.40053287 0.15320446 0.003654845 0.13458203 -0.03182216 0.09964858 0.01742349 -0.0860873
-0.0733606 -0.0076375655 -0.10881292 -0.18172503 0.25873274 -0.09564841 0.1320746 -0.09689309
0.5214964 0.2254474 -0.0030104304 0.19863065 -0.041873664 0.20328811 0.089005135 -0.41838807
0.19687779 0.097797975 0.012548987 -0.06819479 0.15990955 -0.12909813 0.09312765 0.09389801
0.22017571 0.14362587 -0.14084168 -0.05430672 0.06994186 0.005935708 0.14061508 -0.09528769
-0.4503875 0.37668416 -0.72602975 -2.2925053 0.65821916 -0.12992254 0.41699272 -0.44743374
1.6474288 0.24027531 -0.26038766 0.06778848 -0.083539724 -0.40097716 0.7099345 -2.739245
0.026876183 0.004180189 -0.023542443 -0.07971921 -0.18532765 0.12689717 0.0037589655 -0.015039536
-0.39673448 -0.14085095 -0.0756287 0.012062377 -0.06555793 -0.16608754 -0.10516534 0.15526204
0.5836551 0.53060776 -0.30549327 -2.172293 -1.6825271 0.48885167 -0.68213433 -0.60879153
-3.5732534 -1.7127496 -0.53627247 -1.2096196 -0.5453101 -1.9545536 0.20728132 0.057418372
0.36868408 -0.018426856 0.14154965 0.47532013 -0.38609788 0.0051045544 -0.19199856 0.13193513
-1.0008609 -0.17970596 -0.048259202 -0.16467409 0.049674574 -0.12850107 -0.19299912 1.0250025
-0.048689153 0.06073589 -0.07661643 -0.06905455 0.07812466 -0.10347622 0.034829784 0.08406128
0.077165805 0.066224635 -0.055721957 0.03876733 -0.008612277 0.050475653 0.03858055 0.058294374

block1_1.conv1x1_2.weight f4 [8, 8, 1, 1]
00000000: d653 92be 1c9e 7ebc f154 973c 2a90 13be
00000010: 4c51 66bd 5d2f 0c3c 28ba 4b3e dd24 83be
00000020: 80d1 29be 62db 6ebe 2115 ecbc f6e4 91be
00000030: 60dd 383d df51 63bc c7fa 75be 0334 85bd
00000040: a153 223e 9485 e73d f0ce e6bc 38b0 9dbd
00000050: 007f 17be fd09 163c 30e8 893d 23be cf3d
00000060: e690 133d 2841 153e bff8 023d 81c2 243e
00000070: bb82 8d3d 77eb e0bc 94fd 20bd d024 81bd
00000080: 9e01 d2bb e8e4 d0bb 3eb2 21bd a232 1f3e
00000090: 4440 c2bd 2244 b13c 09b6 b33d 8c7a ecbd
000000a0: 2ef5 453e 97b6 573c 9542 54bd c867 8d3d
000000b0: 73d3 143d f0d2 4fbe 3d6b 0dbe d4b8 4d3e
000000c0: c8ad ae3d 34ac 04be bff0 f33c 8ace 4dbb
000000d0: 97ba 79bd 34a7 42be 9a5c 693d 1ab9 ea3d
000000e0: abc8 85bc be0a a1bd e6ce cf3c b6fe 98bd
000000f0: cd2c bf3d b5a7 e4bb ce74 9339 0896 f23d
-0.28579587 -0.015540626 0.01847312 -0.14410463 -0.056229874 0.008556214 0.19895232 -0.25614062
-0.16583824 -0.23325875 -0.028818669 -0.28494996 0.045132995 -0.0138745 -0.24021445 -0.06504061
0.15852214 0.11304775 -0.028174847 -0.07699627 -0.1479454 0.009157655 0.067337394 0.101436876
0.036026858 0.14575636 0.031975504 0.16089822 0.069097005 -0.027456028 -0.03930433 -0.063058496
-0.006408884 -0.006374944 -0.039476626 0.15546659 -0.09484914 0.021638934 0.08774955 -0.115468115
0.1933181 0.013166091 -0.05182131 0.0690456 0.036334466 -0.2029531 -0.1381044 0.20090038
0.0852924 -0.12956315 0.029777883 -0.0031403624 -0.06096896 -0.19009095 0.056973077 0.114610866
-0.016331038 -0.07863377 0.025367212 -0.07470457 0.09334717 -0.006978 0.0002812505 0.118450224

block1_2.freq_dw_conv.weight f4 [8, 1, 3, 1]
00000000: a76d 063e f64e bfbe 7002 4cbe 16fd dc3e
00000010: a4e8 5a3e 43ed d83d 2f51 13bf 190c 90be
00000020: b32f cb3e 40a1 8f3e be74 003e dcf1 573e
00000030: 8e00 bc3f 563e 883f 79e2 ab3f 84b1 4f3e
00000040: 8b51 a63e c9e5 203e 370c bdbf 9fda 463f
00000050: a4bd 66bd df04 44bd 1559 75be 941a 29be
0.13127767 -0.3736493 -0.19922805 0.4316184 0.21377808 0.10592129 -0.5754575 -0.2813423
0.3968483 0.2805271 0.12544534 0.21088356 1.4687669 1.0644023 1.3428489 0.2028256
0.32484087 0.15712656 -1.4769353 0.7767734 -0.0563332 -0.047856208 -0.23959763 -0.16514045

block1_2.ssn1.bn.weight f4 [40]
00000000: ce50 023f b3c9 0c3f d767 db3e a80a e83e
00000010: fc02 353f 9293 7ebd f880 d83e 4e37 9b3e
00000020: 1bcd e13e 2299 bd3e 3940 013f c290 d93e
00000030: e429 4c3f 9f88 ec3e f20f 413f 1b12 ad3e
00000040: 0c92 a83e a666 a63e 4904 a63e 50cf 573e
00000050: 3eaf 0b3f 70ab 1e3f 9907 fe3e 9b3d 023f
00000060: f0a6 ec3e f36e 0a3f fb96 ae3e e004 263f
00000070: 312c b73e 35cb c53e 7e75 053f c8f5 6a3f
00000080: 1fd0 a43f 64c1 063f 05f4 ba3e 348e eb3e
00000090: 0551 0b3f f44b c53e e46f 1f3f 6a67 283f
0.5090455 0.5499527 0.4285266 0.4532063 0.7070768 -0.062152453 0.42285895 0.30315632
0.44101796 0.37030894 0.5048862 0.42493254 0.7975142 0.46197984 0.75414956 0.33802876
0.32923925 0.3250019 0.32425144 0.21075177 0.54564273 0.6198034 0.49615172 0.5087525
0.46221113 0.54075545 0.34099564 0.6485119 0.35775903 0.38631597 0.52132404 0.9178128
1.2876014 0.5263884 0.36514297 0.4600693 0.544205 0.3853451 0.62280107 0.657828

block1_2.ssn1.bn.bias f4 [40]
00000000: 8cf1 893c de41 023e 15c7 063c a075 50bd
00000010: 1b9b 413e bb6f 04bd 4dd8 b3bc 1d01 3e3d
00000020: 5776 893d 1d97 fabd c0c0 753d 91d1 223e
00000030: db95 b73e a9f6 4e3a 0a78 43bd b0e3 3dbd
00000040: d9ca 003e 755f 1e3b 9477 93bb 5305 e4bc
00000050: 5f9f ecbd 2b70 7ebd e2f4 413d c3b7 f4bb
00000060: 8f5b aebc 44f7 233e fb86 653e c468 663e
00000070: f9fc 593e 72fb 153e 9eb3 98bd 7e76 fc3e
00000080: 26c9 4dbe 394c eb3e f412 bd3d d50c 353d
00000090: cedd 7fbc 9a5f 6cbe 8a3c 583e 9d6f d93d
0.016838811 0.12720439 0.008226176 -0.050893426 0.18906824 -0.032333117 -0.021953726 0.04638778
0.06712025 -0.12235854 0.059998274 0.15900256 0.35856518 0.00078950316 -0.0477219 -0.046359718
0.1257738 0.0024165784 -0.004500339 -0.02783457 -0.11553835 -0.06211869 0.04735268 -0.007468195
-0.021283893 0.16012293 0.22414772 0.22500902 0.21287908 0.146467 -0.07456134 0.49309152
-0.20096263 0.4595659 0.09232131 0.04420169 -0.015616847 -0.23083344 0.21116844 0.10616992

block1_2.ssn1.bn.running_mean f4 [40]
00000000: 6029 1ebe c5f3 04be 2b99 1bbd 2eed f1bd
00000010: d083 27be be5a e63d d169 753e c3f1 a23e
00000020: a03e 853e 67a6 0f3e 8038 9fbd f613 1f3c
00000030: 7172 c8bd fce5 243d 66b9 a4be 6457 cc3d
00000040: 6937 823e f8ce f03d d172 0a3e 1f5b 323e
00000050: 184a 003e ea29 9c3f 0914 773f bea8 8f3f
00000060: f5ce 243f 1f8f ab3e 02e3 a83e 3407 cb3e
00000070: d1de cd3e bd4b ab3e 4937 3bbe 1593 c7be
00000080: c80f 5fbf e625 f6be f091 5dbe f4eb 64bd
00000090: a1b7 85bd caa3 57bd a6a1 aabd 1ce1 a5bd
-0.15445471 -0.12983616 -0.03798787 -0.118128166 -0.16358876 0.112477764 0.23966147 0.31825075
0.26024342 0.14028321 -0.077744484 0.009709349 -0.09787453 0.040258393 -0.32172698 0.09977606
0.254329 0.11758226 0.13520361 0.17417572 0.12528265 1.2200291 0.96514946 1.1223371
0.6437829 0.3350763 0.32985693 0.39653933 0.40209058 0.3345622 -0.18282808 -0.38979402
-0.87133455 -0.4807579 -0.21637702 -0.055889085 -0.06529165 -0.052646436 -0.08331613 -0.08099577

block1_2.ssn1.bn.running_var f4 [40]
00000000: 0de5 853c 6c24 1e3c d63c 693b 2a0f 9e3c
00000010: 8f01 cc3c c44d 4a3c d895 7d3d bd79 ab3d
00000020: 536e 2a3d d1c5 503c ebeb aa3c d800 023c
00000030: 1543 133d 00fd 423d 01ec 253e 6f45 9e3b
00000040: 7667 ac3c e1fb 053c 07c0 3c3c 80b5 af3c
00000050: 022c 283e 3ebf 4740 6edb 0340 c13c 3a40
00000060: e39a 923f 0bd7 aa3d d3a7 d83d 2aba 1f3e
00000070: 5ea8 f33d 5939 993d aaf2 1f3f cc1f 103f
00000080: ee91 013f b81e 993f bcde 673e 4c8c 823c
00000090: 4969 823c 5ea2 1b3c 6737 8e3c 1d55 8e3c
0.016344571 0.009652238 0.003558924 0.01929434 0.024903087 0.012347642 0.06191048 0.08372829
0.04160912 0.012742476 0.020864448 0.0079347715 0.035952646 0.04760456 0.1620331 0.0048300545
0.021045428 0.008177728 0.011520392 0.02144885 0.16423038 3.1210475 2.060268 2.9099581
1.1453518 0.083417974 0.10578885 0.1559836 0.11897348 0.07481641 0.6247965 0.5629852
0.50613296 1.19625 0.2264356 0.01593604 0.015919344 0.009499161 0.017360402 0.01737457

block1_2.temp_dw_conv.weight f4 [8, 1, 1, 3]
00000000: faa4 1e3e 2f17 f9bc 06ac 86be 65dd 1ebd
00000010: be6d 66be cd2b e73e 1324 65be 2de2 b9bd
00000020: 25a4 76be f4c4 1bbe 7d6f a33d 803a 9b3e
00000030: 7b35 a23c 0f39 863e edaa 02bc c00d 813d
00000040: 5e3c 3c3e 99f0 893e e5b7 4abe afda 5a3e
00000050: 8eda 073e 741f f2bd 95e7 e7bd 4ba9 60be
0.15492621 -0.030406563 -0.26303118 -0.038785357 -0.22502801 0.45150605 -0.22377042 -0.09076343
-0.24086054 -0.1521185 0.07980249 0.3031807 0.019800892 0.26215407 -0.007975322 0.06301451
0.18382403 0.26941374 -0.19796713 0.21372484 0.13266966 -0.118224055 -0.11323468 -0.2193958

block1_2.bn.weight f4 [8]
00000000: eb95 503e 1b04 cd3e 0cba 5d3e f5d2 8f3e
00000010: 3d60 bb3e 771e b03e eb03 1d3e c6bf f93d
0.20369689 0.40042195 0.21653003 0.28090635 0.3659686 0.34398243 0.15333526 0.12194781

block1_2.bn.bias f4 [8]
00000000: 2a3d cbbd 3043 d8bc 8bfa 13bd 48ba 93be
00000010: 4fb1 883e a093 3fbd 89a0 89bd 57cb 273d
-0.099237755 -0.026399225 -0.03612761 -0.2885306 0.26697776 -0.046771646 -0.06720073 0.040965404

block1_2.bn.running_mean f4 [8]
00000000: 9884 e8bb 0d24 99ba 31ef 67bd 565b 1e3b
00000010: 1399 0bbc 93c3 cb3d d3c8 be3c 891d 14bc
-0.0070958845 -0.0011683718 -0.056624595 0.0024163327 -0.008520382 0.09949412 0.02328912 -0.009040245

block1_2.bn.running_var f4 [8]
00000000: eee8 a53b 0dc6 043b 71c9 7f3c d989 753b
00000010: 0eb9 793c c92d 393d 93d1 513b 9623 3b3d
0.005063168 0.002025965 0.015611992 0.0037466197 0.015241874 0.04520968 0.0032015785 0.045688234

block1_2.conv1x1.weight f4 [8, 8, 1, 1]
00000000: edcd 263e 8839 a73e ce62 4d3d 0fe3 2d3e
00000010: 055e 98be 45e5 acbd 0982 aabc 0f7d e03c
00000020: 3220 f4bc 910a acbe 262d 4b3e 53c4 d13d
00000030: 3bf8 113d 3b09 883d 572b f8bd 60e2 a53c
00000040: 8eb5 9a3d c8b0 503e b07a df3d 25fb 06bd
00000050: f90a e0bd 2fa0 9cbd cee2 cf3a ba27 93bd
00000060: 851c ad3c e92b 82bc 1cfc 9339 e788 ebbd
00000070: 06ae 35be 2e8b 243e 11f5 b2bd f863 99bc
00000080: 9731 68bd d6ac 1dbe 0d15 1cbd af29 203e
00000090: 04a3 403e 58ee 17bd 6e90 ec3d 0905 823d
000000a0: f763 df3d cf3e 923e decc 0c3d 4a81 a43d
000000b0: f11b 72be 8807 91be 0989 933c 5acc cebd
000000c0: d82f 7dbd 2245 10bd 93a5 debd 5c4c 34bd
000000d0: 0794 8c3d 0fcf cabd 857c ddbc 9d3d 81bd
000000e0: cb7e 27be 0f7b 7abe e28b 3abd 292d c3bd
000000f0: a649 48be 4254 883e 846c b2bc 22ee 10bd
0.16289492 0.3266108 0.050143056 0.16981147 -0.2975923 -0.08442167 -0.020813959 0.027403383
-0.029800508 -0.33601812 0.19841442 0.10242524 0.03563712 0.066423856 -0.121176414 0.020249546
0.0755416 0.20379937 0.10912073 -0.032954354 -0.10939593 -0.0764774 0.001586044 -0.071853116
0.021131763 -0.015890079 0.0002822586 -0.115007214 -0.17742166 0.16068718 -0.08738149 -0.018724427
-0.056687918 -0.15397963 -0.038106013 0.15640901 0.18812186 -0.037092537 0.11550985 0.06348617
0.10907739 0.28563544 0.034375064 0.080324724 -0.23643471 -0.28326058 0.01800968 -0.10097571
-0.061813205 -0.03522218 -0.108714245 -0.044018134 0.068641715 -0.099027745 -0.027036915 -0.0631058
-0.16356961 -0.24461006 -0.04554356 -0.09530098 -0.19559345 0.26626784 -0.02178026 -0.03538335

block2_1.freq_dw_conv.weight f4 [12, 1, 3, 1]
00000000: b5be 14bf 4d2b 1d3e e940 dfbd ce60 c5be
00000010: 7bad bebe 1926 afbe 3e18 49be d7eb 113d
00000020: 6feb 93be 7738 1b3e c8be 0c3f 9d51 e93e
00000030: 5da2 51be a6ad f6be 4051 0a3e 43e9 773c
00000040: 7107 89bf 25c5 98bd d1ac 013f c429 533f
00000050: 18a9 f1bd e3ea 1c3e 9156 c6be 2131 6b3e
00000060: 834d 163d 53f5 e83d a132 be3e 97ec 6cbe
00000070: 979c 0abe 8d6f e8bd 488a b7bd c62b b33e
00000080: a5a2 063e 31d1 8dbe 75bc dbbe 37c5 7a3b
-0.58103496 0.15348549 -0.109010525 -0.3855042 -0.3724173 -0.34208754 -0.19638154 0.035625305
-0.2889056 0.15158258 0.5497861 0.45570078 -0.20472093 -0.48179358 0.13507557 0.0151312975
-1.0705396 -0.07459477 0.5065432 0.82485604 -0.1179983 0.15323977 -0.3873792 0.2296796
0.036695015 0.11374917 0.37148002 -0.23137127 -0.13536297 -0.113494016 -0.08961922 0.34994334
0.13147981 -0.27698663 -0.4291722 0.0038264522

block2_1.ssn.bn.weight f4 [60]
00000000: 7ad6 043f a7eb a53e aa0f e53e 960f 0b3f
00000010: d2bb 013f 5323 1c3f 3d5a 0e3f 18dd 3d3f
00000020: 93e0 093f 910e 803e 8b3f 1f3f 568e 193f
00000030: 96d1 393f b43f 133f 2628 f73e 4a78 7b3e
00000040: 73f6 3f3f 5e48 1b3f 243f 363f 15b0 ce3e
00000050: 2fec b13e d900 2f3f b576 ff3e 885e fe3e
00000060: 2968 7e3e 0442 6e3e d9b4 743f db31 273e
00000070: 6030 8b3d 0a3c 3c3f 87ce f23e fbdb f83e
00000080: bed1 233f fec5 1e3f adc8 a83e 39fe c03e
00000090: 0533 c03e ad9d b83e 6c31 ca3e 8e96 f03e
000000a0: 5be4 db3e 7dbc cc3e e6d7 d43e a937 d83e
000000b0: d416 fe3e 73da fd3e 1eb8 f53e d59a de3e
000000c0: 93d6 db3e 56f2 fe3e 2d0a d03e 5958 e33e
000000d0: 21f1 f83e 9365 d93e b564 c83e ccdf 1a3f
000000e0: 108b 043f 0fc4 043f 269e ee3e 36f7 f03e
0.51889765 0.3240635 0.44738513 0.5432066 0.50677216 0.609914 0.5560644 0.7416549
0.538583 0.25011113 0.62206334 0.5998281 0.7258543 0.5751908 0.48272818 0.24557605
0.74985427 0.606573 0.71190095 0.40368715 0.34750506 0.6836067 0.49895254 0.49681497
0.24844421 0.2326737 0.9558845 0.16327612 0.06796336 0.7352911 0.47423193 0.48605332
0.63991916 0.6202086 0.32965603 0.37693956 0.37538925 0.36057797 0.3949083 0.46989864
0.4294766 0.39987555 0.41570967 0.42229965 0.4962679 0.49580726 0.47992033 0.43477502
0.42937145 0.49794263 0.40632764 0.4440334 0.48621467 0.42460307 0.39139333 0.60497737
0.5177469 0.5186166 0.46605033 0.47063607

block2_1.ssn.bn.bias f4 [60]
00000000: fd7b e2bc 6db1 23bd 79f2 bf3d 19ba bd3d
00000010: dce2 5f3d 34e9 15bc 712f 583e 4a97 c93e
00000020: c93e 003e ec6f 2abe 1522 783e 4cb0 883d
00000030: 4cbb 233e c0e2 143e bc8f 1b3d 56b8 913d
00000040: 2bff a6bc aa86 943e ad76 ac3e e49d 30bd
00000050: 06ee 29bd 06a5 df3d 7edb a4bd 6062 723e
00000060: c183 5cbd 3516 b7be 587d 6b3f f13b c13e
00000070: 82f4 8abe ba68 103f adb3 203e 2dfa 6c3e
00000080: e26d 2d3c 31be 8e3e d90e 363d e585 5b3c
00000090: cfa5 99bc da54 cf3d 1fe3 823c 1618 06bd
000000a0: 9a5f c23d f202 f0bd cc63 863d b445 ab3d
000000b0: fe62 0a3e 2101 e83d 5bed da3d d1bd b0bc
000000c0: d4ee d8bb 6b35 c93d 5e92 fbbc 5edf e5bb
000000d0: 2a5b cb3c 32b8 02bc b7c4 adbc 8e56 0b3c
000000e0: 8306 093e f56c 9b3d 871d e8bc 1e25 ec3d
-0.027647013 -0.03996413 0.0937242 0.09264011 0.05465971 -0.009149838 0.21111847 0.39373237
0.1252395 -0.16644257 0.24231751 0.06674251 0.15989417 0.14539623 0.037978873 0.071152374
-0.020385345 0.2900899 0.33684292 -0.043119326 -0.041486762 0.109201476 -0.08049677 0.2367034
-0.053836588 -0.3575913 0.91988134 0.37741044 -0.2713967 0.564098 0.15693541 0.2314231
0.01058528 0.2787948 0.044447754 0.013398622 -0.018755822 0.10123606 0.01597744 -0.032737814
0.09490891 -0.11719312 0.065620035 0.08362904 0.13514325 0.1132834 0.10689803 -0.021574887
-0.0066202674 0.09824642 -0.030709442 -0.007015153 0.024823744 -0.007978486 -0.021211965 0.008504523
0.1338139 0.07589141 -0.028334392 0.11530517

block2_1.ssn.bn.running_mean f4 [60]
00000000: e63d 28be 4e7b 18be 0fb8 c4bd 0f36 d5bd
00000010: d7e8 1ebe 090f 13bf 92e0 03bf 0462 00bf
00000020: 2e31 24bf 653c 1ebf 532c 58be 0e19 62be
00000030: 42cd 63be 7289 62be b132 67be 13ee 8f3e
00000040: ae90 043f 63e7 5e3e 457d ae3e 9297 1e3e
00000050: 24f1 13be d86c bdbe a94a babe 6e44 1abe
00000060: 9581 4dbe c953 f2be 24df 6ebf 0aef 4ebf
00000070: 815a b7be 9f12 45bf 07ae e43e efa9 863f
00000080: 6e00 9d3e 73e1 9c3e efcb 603e 86bf bcbd
00000090: c7e6 21be 5e92 18bd 012b 723c 7dc7 60bd
000000a0: 538d fa3d 056f 5c3e 0275 b93d d2a7 513e
000000b0: d00b 063e 0ee2 64bc 745b f5bd 5794 debd
000000c0: d5c8 e4bd c020 a0bd 36a1 8e3c 16f3 a83d
000000d0: d96d 123d 97f4 ab3d 3f60 463d 9ae4 8bbe
000000e0: fd46 17be 8c13 74be 3183 85be db23 87be
-0.16429862 -0.14890787 -0.09605419 -0.104107015 -0.15518509 -0.57444817 -0.5151454 -0.5014956
-0.6413754 -0.61810905 -0.21110658 -0.2207987 -0.22246268 -0.22122744 -0.22577931 0.28111324
0.51783264 0.21767955 0.34079948 0.15487507 -0.14447457 -0.36997104 -0.36385086 -0.15065166
-0.20068963 -0.47329548 -0.93309236 -0.80833495 -0.35811237 -0.7698154 0.44664022 1.052061
0.3066439 0.30640754 0.21952794 -0.09216218 -0.15810691 -0.03724896 0.014780761 -0.054877747
0.12233987 0.21526726 0.090555206 0.20474175 0.13090444 -0.013969911 -0.11980334 -0.10868137
-0.11171118 -0.078187466 0.017410856 0.0824949 0.03574929 0.08396261 0.04843163 -0.27322847
-0.14773174 -0.23835582 -0.26076654 -0.26394543

block2_1.ssn.bn.running_var f4 [60]
00000000: 45a0 b23c b479 0c3d 0935 8d3c 9b46 833c
00000010: 82fd 6a3c 80ce cb3d 7949 133e 562f 053e
00000020: d536 f63d 1bc0 ff3d fcff 963c ec53 f13c
00000030: b75d 0a3d 8be9 d73c e981 893c 241d 9c3d
00000040: 5ef2 533e ca7e bf3d 410e 0a3e 35bc 2e3d
00000050: e9ca d53c 2ce4 943d 3594 663d 96fa 0b3d
00000060: 245c e93c eb58 603e 0a31 813f c8ed 2f3f
00000070: 4e8e 3d3e 9613 093f 1d93 833e 5d97 0a3f
00000080: 4b13 533e 644f ba3d c834 a93d 703b 5c3c
00000090: d5c8 893d ec38 283c 4238 693a 3b13 343c
000000a0: 4752 393c a8e7 f13c 8efb 273c cb17 0a3d
000000b0: 918b 883c 5745 853a 7baf 013d a0f4 dd3c
000000c0: a002 f03c 66a4 833c 9a9e ce3a 3556 853c
000000d0: 3d8b 6f3b e126 8e3c 97eb 003c 692e 543d
000000e0: 1bf4 713c b835 303d 12a7 103d 2968 043d
0.021804938 0.034295753 0.017237203 0.016024878 0.014342668 0.09951496 0.14383496 0.13006338
0.12022177 0.12487813 0.01843261 0.029458962 0.03378078 0.02635648 0.016785579 0.07622746
0.20697924 0.09350355 0.13482 0.042659957 0.026097732 0.07270083 0.056293685 0.034174524
0.028486319 0.2190892 1.009309 0.687222 0.18511316 0.5354551 0.25698176 0.5413721
0.20612828 0.09097174 0.0826202 0.013441905 0.06727759 0.0102674775 0.00088966277 0.010990913
0.01131112 0.029529408 0.010252846 0.033714097 0.016668113 0.001016776 0.03166149 0.027094185
0.029298127 0.016069602 0.001576382 0.016276458 0.0036551498 0.017352523 0.007868669 0.051802073
0.014767672 0.04301998 0.03531558 0.032325897

block2_1.temp_dw_conv.weight f4 [12, 1, 1, 3]
00000000: 6e88 b33c 66af 6ebe c6fd 08bd 5b6a 163f
00000010: 50d3 1d3e 7882 55bf 930a 9dbe ec4d f03d
00000020: 7bc4 6e3e 6db1 783e bba2 913d e930 0abf
00000030: ca80 ee3d 4db9 613e 98e5 3dbd e929 cd3d
00000040: fa4c 033e ef60 8b3e 23b6 32be 257c 00be
00000050: a2e3 50bd 68d0 0abc 6727 be3d f12a b3be
00000060: d13f 533e 25ff 32be 64a0 bc3d 394b e13a
00000070: fc88 62be 99f7 14be c5e8 2ebe 98e9 783d
00000080: 06eb 62be 72ae c63e e851 6e3e 11d0 73be
0.02191564 -0.23309097 -0.033445142 0.58756036 0.1541264 -0.83402205 -0.3067213 0.117336124
0.23317139 0.24286433 0.071111165 -0.5398088 0.11645658 0.22043343 -0.046361536 0.10017759
0.12822333 0.27222392 -0.17452292 -0.12547357 -0.050998338 -0.0084725395 0.09284859 -0.349937
0.20629813 -0.17480142 0.092102796 0.0017188556 -0.22122568 -0.14547576 -0.17080982 0.060769647
-0.22159967 0.38804966 0.23273432 -0.2380984

block2_1.bn1.weight f4 [12]
00000000: 4b02 043f a4cc d53e 1989 f93e c34c 193f
00000010: f139 023f a6ec 623f dd1c 283f 65c3 033f
00000020: 1b29 ce3e ead5 e73e ec24 de3e 6967 ef3e
0.51566 0.4175769 0.4873741 0.59882754 0.5086966 0.88642347 0.6566904 0.51470023
0.40265736 0.4528039 0.43387544 0.46758583

block2_1.bn1.bias f4 [12]
00000000: ceeb b23b 3af9 053f 7ff7 d53e b8d6 5a3d
00000010: 22ac 983e 0189 a23e 0633 613e 9ab7 2bbe
00000020: c382 623e 4fae 4bbd 1c35 bfbd 050c 853e
0.005460239 0.52333415 0.41790387 0.053427428 0.29818827 0.3174515 0.2199212 -0.16769257
0.22120194 -0.04972678 -0.09336302 0.25985733

block2_1.bn1.running_mean f4 [12]
00000000: 6929 ebbe 248e 78bf 83a8 3f3e bd10 71be
00000010: ba0d 4c3f 966c 563f c6ab 8cbc 8bdd 9d3e
00000020: b30d 63be bd43 073e 9e14 66bc d263 9abe
-0.4593003 -0.9709189 0.18716626 -0.23541541 0.79708445 0.8375944 -0.017171752 0.30833086
-0.22173195 0.13209434 -0.014043001 -0.30154282

block2_1.bn1.running_var f4 [12]
00000000: 4e6a e63e deaa 233f 5a2b 163f 68f6 ba3e
00000010: ee93 c63e f7a9 9f3f 115b 113f 3176 2e3e
00000020: f789 3c3e 33e3 5c3e cc42 1f3d 8d39 8d3e
0.4500298 0.639326 0.586599 0.36516118 0.38784736 1.2473744 0.5677958 0.17037274
0.18412004 0.21571045 0.03888206 0.2758297

block2_1.bn2.weight f4 [12]
00000000: ad70 003e 6340 0a3f 912c 9e3e c6ec 123f
00000010: de50 883e 93e7 803e 4be0 893e 42dc a93d
00000020: a8a2 f93d 3638 d53d 1d86 8a3e 6fbb ac3e
0.12542982 0.54004496 0.30893376 0.5739254 0.26624197 0.25176677 0.26928934 0.08293964
0.12189227 0.10411112 0.27055445 0.3373675

block2_1.bn2.bias f4 [12]
00000000: 7c76 dabd 64da 73be 06d8 bfbc ff42 a4be
00000010: 86b0 3bbe 4c4b b5bd 8fca 8d3d 195c 4b3d
00000020: 5218 993d 3b47 ad3c 59a8 2abe 82cd d73d
-0.1066713 -0.23813778 -0.023418438 -0.32082364 -0.18329057 -0.08852252 0.069234006 0.049648378
0.07475342 0.02115213 -0.16665782 0.105372444

block2_1.bn2.running_mean f4 [12]
00000000: 8a44 0fbc e6fc 3fbb 9313 013c f534 f7bc
00000010: 93ba 263c a6a9 f93d 810a 51bd 2a18 87bb
00000020: c14e b53b 260f aabc ba6d 383b 2024 b03c
-0.008744368 -0.0029295026 0.007878202 -0.030176619 0.010176319 0.12190561 -0.051035408 -0.0041227536
0.00553307 -0.020759176 0.0028141574 0.0215016

block2_1.bn2.running_var f4 [12]
00000000: 62a6 003c 3c35 db3c 796c 903b 82fa 853c
00000010: 275c 4c3b fcbb ea3c 04e9 d23b 4fb5 8c3a
00000020: e8b7 283b a963 c33c af83 833c b64b cc3c
0.007852169 0.026758783 0.004407462 0.016354803 0.0031182857 0.028654091 0.006436469 0.0010735187
0.0025744382 0.023851233 0.016054003 0.024938446

block2_1.conv1x1_1.weight f4 [12, 8, 1, 1]
00000000: 1c15 103e 9ef1 58be aad3 0fbe 3041 e9bd
00000010: 9a54 c9be aaad 8b3e 8861 e2be e2c0 2a3d
00000020: fdb0 aebe 09b4 a53e 0c75 3c3d d5b8 243c
00000030: 53df 1abc a831 21bf 2616 2abf 2aed 1a3d
00000040: 2932 ea3d cd23 1dbe d465 cd3d 11d2 473e
00000050: 5a3b 15bf b6ff ef3e 2d17 85bc dd81 fa3d
00000060: 0fa8 e2be c1c7 c73e 59fa ffbe dd65 033e
00000070: 8473 13bf c627 e7be 78a9 dd3e ab79 0b3f
00000080: 8bd4 8fbd e244 743e 6965 6a3e d4a0 80be
00000090: 511e a13e 4e37 083d c61a 363f 2903 dabd
000000a0: 18ef bd3e 303f 10bf f491 503e 1f6a 2c3d
000000b0: 5ce5 b9be 696e 3a3f c3a4 173f 6f43 55be
000000c0: 3cad 233c 7db0 50be 4626 52bf f28e bdbb
000000d0: 9d99 b9be 127c b9be f12b 6a3f e88d 733e
000000e0: 3ea6 a5bd 726c eabd a7dc 2a3e 1118 87bd
000000f0: 9064 99bc a337 d3bd 1754 0b3f 2ad4 84bd
00000100: 1dc8 50be 2eed cabd 85b8 c8be 5bae ef3d
00000110: b49b 383e a1e8 8bbe b9fa 693d c590 9d3e
00000120: b962 0c3e b67c 713d 79d4 ab3d ef7d 81be
00000130: 9952 183f e02c b1bd a8e5 90bd 4e4a 00bd
00000140: 0ee2 19be c454 19be 06a1 debd 69b4 fabc
00000150: 3bbe 873e 1fa4 8439 8fe6 b63c 0022 153d
00000160: aa59 213e b4d1 453e d94d 1e3e e757 3cbb
00000170: d029 02bf 8a9a 103e 91b9 d2be 9e9e e0bd
0.14070553 -0.2118592 -0.14045587 -0.11389387 -0.39322358 0.27280933 -0.44215035 0.041687854
-0.34119406 0.32363918 0.046010062 0.010053833 -0.009452659 -0.62966394 -0.66440046 0.037823834
0.114353485 -0.15345688 0.10029188 0.19513728 -0.5829369 0.4687478 -0.016246403 0.12231801
-0.44268844 0.39019588 -0.49995688 0.12831827 -0.5759814 -0.45147532 0.43293357 0.54482526
-0.07022961 0.23854402 0.22890247 -0.25122702 0.31468442 0.033255868 0.71134603 -0.10645134
0.37096477 -0.56346416 0.20368177 0.042093392 -0.363078 0.7282472 0.5923578 -0.20826505
0.009990033 -0.20379825 -0.8208965 -0.0057848627 -0.3625001 -0.3622747 0.914733 0.23784602
-0.08088349 -0.114464656 0.16685735 -0.06596387 -0.01872471 -0.10313346 0.54425186 -0.064857796
-0.20388837 -0.0990852 -0.39203277 0.117031775 0.18028146 -0.2732592 0.057123873 0.30774513
0.13709535 0.058956824 0.08390135 -0.25291392 0.59501034 -0.08651137 -0.070750535 -0.031320862
-0.1502764 -0.14973742 -0.108705565 -0.030603604 0.26512322 0.00025299282 0.022326736 0.036409378
0.1575686 0.19318277 0.15459384 -0.0028738917 -0.5084505 0.14121452 -0.411572 -0.10967754

block2_1.conv1x1_2.weight f4 [12, 12, 1, 1]
00000000: e247 f43c 48e0 edbd 35bc b8bd 1367 30bd
00000010: 0b6c 11bd 7cc5 0dbe 0065 babd 0da7 6cbd
00000020: 52a1 79be cd44 3bbd 3735 3cbd d80f 84be
00000030: 1f17 58bd 5bc7 60bd 461b 4abd 9d0a 66be
00000040: 1de1 dbbc dafb 393d e78d 9fbd 7c2d c3bd
00000050: 579f 17be cf44 36bd d534 893d fefe c3bd
00000060: da0c 853d b08d 73bd 32cc 673d f6a5 74bd
00000070: 4972 19be bac8 163e 3b66 1cbe a8cc 6abd
00000080: 61e2 66bd 72b2 ccbc 61fd 04bc fd66 7a3d
00000090: 61ca 10bd 5441 09be 679f babd b935 ee3d
000000a0: b2d6 b9bc e972 26bc 7220 803d 01d0 2e3e
000000b0: 497b c53d 771e d3bd 8691 9c3d 61fd 923d
000000c0: 051e ec3d 3a4d b7be 08f6 c4bd d3b0 3e3e
000000d0: 233d d6bd c717 823d d68a f2bd eb1d 3f3b
000000e0: 1522 313e 1771 82bb 7ca4 a93c 63c9 103e
000000f0: 1356 07be 53ff 603e 40e5 623d b36b 433e
00000100: c609 b9bc 7c08 11be 4d2b 6f3d 360f 81bd
00000110: 5dc9 f1bd 9471 5e3d e738 00bd c3f1 b8bd
00000120: fc33 a2bd dd76 d8bc e28a 50bd 00d8 8bbc
00000130: 36ad 29bd 7892 623c 0706 353e e1b5 4eb9
00000140: 8f9a 47bd 2f90 23bd 8cab 853d ede5 2cbc
00000150: 2e70 3ebd 4958 01bf 3aa7 0ebe bb31 f5bd
00000160: b093 883c 2331 c6bd 7fac b3bc 929e 003e
00000170: 8640 0f3d 5d80 3abd 2caf a63c a33a 293e
00000180: 526a 34bd 6c53 e6bd f3d3 0fbd 69cd c83c
00000190: eaae af3d ae29 57bd 9422 3bbd 9f0d eabd
000001a0: cbda 37be f00a aebc 6ffa 9e3b 1474 f33c
000001b0: b945 573d 4c87 c8be 8a65 40be b9a6 e4bd
000001c0: 3951 9ebc 4d94 6cbd 23e3 a9be 6dd5 c73c
000001d0: 00c2 bf3a 5af5 6b3c bf68 663d b940 8d3e
000001e0: 817a 95bc ef6c ebbc 9b08 31bd af42 98bd
000001f0: c28b 8fbd 88fa 193d 4763 e03d 9841 f23d
00000200: a405 07be 4fef 1d3d 42fa 6abd 740a 1a3d
00000210: b01c dd3d 3b17 31be 1547 7b3e e8c6 c53d
00000220: 2218 bbbc df09 37bd cdd3 d9bd e2fc 083d
00000230: 09a8 183c f782 2d3d 0155 28bc e218 08be
0.029819433 -0.11615044 -0.09020273 -0.04306705 -0.03550343 -0.13844866 -0.091012955 -0.0577765
-0.24377945 -0.04571991 -0.045949187 -0.25793338 -0.052756425 -0.05487762 -0.049342416 -0.22464986
-0.02684074 0.0454062 -0.077907376 -0.0953016 -0.14806877 -0.044499215 0.0669953 -0.0957012
0.06496592 -0.059461296 0.05659122 -0.059728585 -0.14985003 0.14725009 -0.15273373 -0.05732408
-0.056368235 -0.024987433 -0.008117051 0.061133374 -0.035349254 -0.13403827 -0.09112435 0.116313405
-0.022685383 -0.010159233 0.062561885 0.17071535 0.096426554 -0.10308545 0.07644944 0.071772344
0.11529163 -0.35801107 -0.09617239 0.1862214 -0.1046088 0.063521914 -0.11842887 0.002916212
0.17298158 -0.0039807665 0.020708315 0.14139323 -0.13216428 0.21972398 0.05539441 0.19084053
-0.022587668 -0.14163393 0.058390904 -0.063017294 -0.11805985 0.054307535 -0.031304266 -0.090304874
-0.079200715 -0.026423866 -0.0509137 -0.01707077 -0.041424952 0.013828866 0.1767808 -0.00019713446
-0.048731383 -0.039932426 0.065268606 -0.010552865 -0.0464937 -0.5052534 -0.1393098 -0.11972376
0.016671985 -0.09677341 -0.021932838 0.1256049 0.034973644 -0.045532573 0.0203472 0.16526274
-0.044046707 -0.1124638 -0.03511424 0.02451201 0.08578284 -0.052529983 -0.045687273 -0.11428379
-0.17954557 -0.02124545 0.0048516314 0.029718436 0.052556727 -0.39165723 -0.18788734 -0.11164612
-0.01932584 -0.05775862 -0.33181104 0.024393762 0.001462996 0.014401758 0.056252237 0.27588442
-0.018246891 -0.028738467 -0.043221097 -0.07434594 -0.070090786 0.03759244 0.10956436 0.11828917
-0.13185745 0.0385583 -0.05736757 0.037607625 0.10796487 -0.17294018 0.24538834 0.09657079
-0.022838656 -0.04468715 -0.10636101 0.033444293 0.009317406 0.042361226 -0.010274173 -0.13290742

block2_2.freq_dw_conv.weight f4 [12, 1, 3, 1]
00000000: b87c 83be 70e8 173d 0f93 b6be 7974 36bf
00000010: bd17 0c3e f4c3 053f 9d6b 793e f2a4 9f3e
00000020: 04bd 293e 1091 44bf 79b7 373e 87ce b83e
00000030: 9fab d6be 6331 9bbd fc59 f93e 06f3 d03e
00000040: 7643 48bf aa3c 4a3f b10d a2be 553b 123f
00000050: affe 30be b57d 803e b164 09bf e0c7 483e
00000060: 08a5 bbbe a2eb 9dbc 2a35 403e 8316 c83c
00000070: e929 473e 36dc b03e 2362 27be 1783 7abe
00000080: 2788 c6bc 930f 683d f68e e8bd 1c4c d53e
-0.2568109 0.037086904 -0.35659072 -0.71271473 0.1368093 0.52252126 0.24357457 0.3118053
0.1657601 -0.7678385 0.17941083 0.36095068 -0.41927812 -0.07577779 0.48701465 0.40810412
-0.7822794 0.78998816 -0.3165107 0.57121783 -0.17284654 0.25095907 -0.5366927 0.19607496
-0.36649346 -0.019277398 0.1877028 0.024424797 0.19449581 0.34543008 -0.1634603 -0.2446407
-0.024234844 0.056655478 -0.11355393 0.4165963

block2_2.ssn1.bn.weight f4 [60]
00000000: 92ac cc3e 1aa2 e43e c68f b93e b401 b43e
00000010: be77 d83e 1da8 fa3e 24a6 173f 34a4 033f
00000020: d327 b93e 12ea f03e 4112 9b3e b191 053f
00000030: b85e 1b3f 7c94 0f3f dda6 e13e f2b1 a13e
00000040: 631e 8b3e f159 bc3e a00d 553f 0460 093f
00000050: b7af 0e3f fb3b ae3e 14aa b63d 4409 273f
00000060: 4c6b e13e 1bc4 353f e564 a33f d2c8 f23e
00000070: 0505 fa3e 7b1f 273e f412 d53e 0b6c ae3d
00000080: 5143 f83e 55fa 1b3f 1428 af3e 9166 9f3e
00000090: 175a df3e b2b1 003f b351 0b3f b680 dc3e
000000a0: 66ba b63e a055 d23e d84f db3e f59b ff3e
000000b0: b1cc d23e 22fe 7f3e 9e67 0b3f e47b a93e
000000c0: 63c1 ca3e 5779 c43e 0a4f f13e 06ef fb3e
000000d0: 6bba d83e 368e dc3e 9be3 f43e c290 ae3e
000000e0: 7290 083f f59d e23e 1138 d53e 1cb8 d83e
0.3997541 0.44654924 0.36242503 0.3515755 0.42278856 0.48956385 0.59237885 0.5142243
0.36163196 0.4705358 0.30287364 0.5217543 0.60691404 0.56085944 0.4407262 0.31581074
0.2717162 0.3678737 0.83223915 0.53662133 0.5573687 0.34030136 0.089191586 0.65248513
0.44027174 0.7100236 1.2765166 0.4741884 0.48831955 0.16320603 0.41616023 0.08516701
0.48488858 0.6092885 0.34210265 0.3113294 0.4362342 0.5027114 0.5442154 0.4306695
0.35689086 0.41080952 0.42834353 0.49923673 0.41171792 0.24999288 0.5445498 0.33102334
0.39600667 0.38373825 0.47130615 0.49205798 0.42329726 0.43077248 0.478299 0.34094816
0.53345406 0.44261137 0.41644338 0.42327964

block2_2.ssn1.bn.bias f4 [60]
00000000: 6a35 9ebd 9bbf 5cbc 329a 5b3d 0866 1bbd
00000010: 6733 9cbd 76c0 4d3e bfcb 553e 2ca4 88be
00000020: 48a4 ffbc f967 093e fe6f 823b b5d1 643d
00000030: d016 9c3d 1314 833d 588e a53c 108d 98be
00000040: 8fb8 02bd 88e6 ea3d 48e6 0ebe d2b5 19be
00000050: da6f 163e 0d7c 593e c82a 49be f7d4 a2bd
00000060: f883 cc3b c3e2 8a3e 208d 5f3e c769 75bd
00000070: dd05 693e 2c00 f43d be48 6b3d 6cc8 963a
00000080: 99da ad3d f732 df3d 077c c9bc 3c0c 39bd
00000090: be45 78bb d92d 0e3c 00be c2bc 98f1 c9bc
000000a0: 4ccb 28bd 2da4 54bc 2434 f83b ee59 c43c
000000b0: 455a a2bc c6b0 3f3d 8645 bf3d 2cc2 49bd
000000c0: 95c9 67bd 7727 0d3d 0921 f43c 8776 af3c
000000d0: 82ce 973c 5bea 3fbd 6a22 4a3b f851 c73b
000000e0: 00f7 1e3e 5682 36bd 2206 babc fd4b db3d
-0.07725032 -0.013473417 0.05361385 -0.0379391 -0.07626992 0.2009295 0.20878504 -0.26687753
-0.031206265 0.13418569 0.0039806357 0.055864055 0.07621539 0.06400313 0.020209476 -0.29795122
-0.03191429 0.114697516 -0.13955033 -0.15010765 0.14691105 0.21238728 -0.19645226 -0.07950776
0.006241318 0.2712613 0.21831179 -0.05991533 0.22756143 0.11914095 0.05744242 0.0011503822
0.0848896 0.10898393 -0.024595274 -0.045177683 -0.0037883366 0.008677923 -0.02377224 -0.024651334
-0.041209504 -0.012978596 0.007574575 0.023968663 -0.019818434 0.046799444 0.093394324 -0.049257442
-0.056588728 0.034461465 0.029800909 0.021418823 0.018531088 -0.04685436 0.0030843266 0.0060827695
0.1552391 -0.04455789 -0.022708002 0.10707853

block2_2.ssn1.bn.running_mean f4 [60]
00000000: d43f 3ebd 1677 84bd edb1 04be af4a 0bbe
00000010: cd3b a2bd 1a66 ab3d c197 083e b4e5 8cbd
00000020: 56f4 f3bd 126b 0bbe 0e36 7f3e 4917 743e
00000030: e680 8e3e fa32 7a3e 74cb 213e a586 37bb
00000040: 7ae9 02bd 35dd 3f3c 307b 32be 8920 babd
00000050: 2e54 db3d ba4a bdbb 7572 8a3c 8a75 7abd
00000060: a8a1 80bd 8f6a ba3e 0fc0 72bd e805 253e
00000070: 6777 933e 5613 e0bd 5d9b 113d a78e 903d
00000080: 85b8 d83c 6a5e fc3d 68ad 03bd fc6a 89bd
00000090: a549 1eba c62c 92bc 8fbb 933b 6a29 89bd
000000a0: 7947 323c 1ffb 6ebd dc7c d0bc 4e01 1cbd
000000b0: bfeb a4bd e6a2 283e 8d90 273e 5b58 023e
000000c0: de38 133e 8705 003e 6e64 2dbd a7da c7bd
000000d0: ce83 c7bd 7928 bbbd 5b77 a0bd 870e 0b3d
000000e0: 495d c83d 41fb 8f3d 6697 993d ee19 0f3d
-0.04644759 -0.06468026 -0.12958498 -0.13602708 -0.07921562 0.08369084 0.1333914 -0.0687975
-0.11911838 -0.13615063 0.24922964 0.23837008 0.27832717 0.24433509 0.15800267 -0.0028003838
-0.03196094 0.011710455 -0.17429805 -0.09088237 0.107094154 -0.0057767304 0.01690028 -0.06114725
-0.062808335 0.36409423 -0.059265193 0.16115534 0.28802034 -0.10941188 0.035548557 0.07058459
0.026455173 0.123226956 -0.032147795 -0.06709859 -0.00060381956 -0.017843615 0.0045084427 -0.06697352
0.010881298 -0.058344956 -0.025450163 -0.03808718 -0.080527775 0.16468391 0.16363735 0.12729017
0.14377162 0.12502109 -0.042332105 -0.097585015 -0.097419366 -0.09138579 -0.07835265 0.0339494
0.09783418 0.07030345 0.0749958 0.034936838

block2_2.ssn1.bn.running_var f4 [60]
00000000: 247c 853b 76bd 833b 1ff6 5c3c 657f 883c
00000010: ba2e 2e3c f059 253d a2a5 373d 2004 a53d
00000020: fb80 2d3d 77e4 123d 3c27 5c3d 12b6 b43d
00000030: b556 d93d b863 c33d 74d1 633d 4413 103d
00000040: 9ee3 ca3d 4878 9a3d 224c 1e3e 80f0 c63d
00000050: 94c6 5a3c d6b4 343d 3c24 d83c f728 d93c
00000060: d0ce 183c f93d a73e be73 393e d2b0 0d3e
00000070: 74b0 013e 26ab 0c3e 13ff df3d d670 af3d
00000080: ec1f c83d e9d9 c53d d2d7 9e3d 514f 6b3c
00000090: 4ac2 863c b4de bc3c 091c 353d e703 003c
000000a0: 71ba 963b 97c9 123c 161e 6d3b 6bda 303b
000000b0: e81d af3c 3a8d 453c 55ac 8b3c 34f3 363c
000000c0: dd7f 5f3c b6c0 5f3c 3de2 043c b6d8 be3c
000000d0: 6318 e43c 97c1 b63c 58e8 973c 7e73 a73c
000000e0: c715 393c 0354 2e3c 8e41 553c 2829 153c
0.0040736366 0.0040203882 0.013486414 0.016662309 0.010631258 0.040368974 0.044835694 0.080574274
0.042359333 0.035862412 0.053748354 0.0882379 0.10612241 0.09540504 0.055619672 0.035174623
0.09906696 0.07542473 0.1545873 0.097138405 0.013353009 0.04411777 0.026384465 0.026508791
0.009326652 0.3266447 0.18110558 0.13836983 0.12664968 0.13737163 0.109373234 0.085664436
0.097717136 0.09660704 0.07756008 0.014362172 0.016450066 0.023055412 0.04421619 0.00781343
0.0045998623 0.008959196 0.0036181263 0.0026985656 0.021376565 0.012057597 0.017049948 0.011166383
0.013641325 0.013656786 0.00811058 0.023296695 0.02784366 0.022309108 0.018543407 0.020440813
0.011296696 0.010640147 0.013016118 0.009104051

block2_2.temp_dw_conv.weight f4 [12, 1, 1, 3]
00000000: 8194 98bc 31c5 ad3e 3af3 773e 68af a73e
00000010: 5baa 9b3d bf6f 01be 62ab 8dbe 3c43 2cbd
00000020: ad22 2a3f cd79 f9be 3b84 7b3b 2eb7 4a3e
00000030: 2eb1 303d 424c cebc 4107 b0be 7094 c23e
00000040: 0ad2 e5bd 8104 fdbd f1de a53e f27f 4bbe
00000050: c5d7 19be 863b 013c 1bd7 82be b7d9 8bbe
00000060: 4ecf 85bc 7575 763c ee0d 143e 244e 4ebe
00000070: 3241 00bc 5649 0ebe 7b2c ccbd c3b9 6fbe
00000080: 95b0 243e 8193 883c fb74 3bbe 9c58 dd3e
-0.0186255 0.33939508 0.24213877 0.32751012 0.07600852 -0.12640284 -0.27669817 -0.042056307
0.6645916 -0.4872574 0.0038378376 0.1979644 0.04313772 -0.025182847 -0.34380534 0.38003874
-0.112217024 -0.12354375 0.32396653 -0.19873026 -0.15023716 0.007887727 -0.25554737 -0.2731454
-0.016334202 0.015042652 0.14458439 -0.20146996 -0.007828044 -0.13895163 -0.099694215 -0.23410706
0.16082986 0.016671898 -0.18306343 0.43231666

block2_2.bn.weight f4 [12]
00000000: 4e16 933e f850 493e 292b 083f 5855 ba3e
00000010: 15ac 9a3e eda0 aa3e 984d 993e f5b7 493e
00000020: b1ae bc3e 22f9 bc3e 2b15 9b3e 7206 0c3f
0.28727955 0.19659793 0.5319086 0.36393237 0.30209413 0.33325902 0.29942012 0.1969908
0.3685203 0.36908823 0.30289587 0.54697335

block2_2.bn.bias f4 [12]
00000000: 28de 10bd dee8 7cbd 6c7e a63d b3dc 83bd
00000010: dab9 81bd f0d8 98bd e40a 6fbd a4ab b3bd
00000020: 66a6 98bd d25d 48bd 79bd bd3c 5af0 183d
-0.035368115 -0.061745517 0.08129582 -0.064385794 -0.063342765 -0.074632525 -0.058359995 -0.08772972
-0.07453613 -0.0489176 0.023161637 0.037338592

block2_2.bn.running_mean f4 [12]
00000000: 5393 8fbc a45a 4e3c 280b 9b3c 7c85 e83c
00000010: 9f11 c1bb bf73 ac3c 41eb a8b9 d5d1 163c
00000020: d4ae d3ba 1ce3 93bb aab3 e9ba 02be 403c
-0.017526304 0.012594853 0.018926218 0.028383963 -0.005891993 0.021051286 -0.00032218735 0.009205301
-0.0016150125 -0.0045131575 -0.0017830033 0.011764051

block2_2.bn.running_var f4 [12]
00000000: 7b29 c43c 33d5 3b39 c5a2 fc3c 1797 433b
00000010: c07d b43a 4f5a 243a 4185 8538 85f1 1f3a
00000020: 4f53 9f3a 1e7c 613c e4ed c43b e165 023c
0.02394556 0.00017913133 0.030839333 0.0029844695 0.0013770387 0.00062695605 6.366755e-05 0.0006101358
0.0012155565 0.013762502 0.006009804 0.00795886
