model_greeting100/model.pt (torch, 104205 bytes, 158 tensors)

conv1.weight f4 [16, 1, 5, 5]
0	0x3d7aa75d	0.061194766
1	0x3cfa8bc1	0.030584218
2	0x3e1a2a99	0.15055312
3	0x3cc688e3	0.024235195
4	0xbd3a65d2	-0.04550726
5	0x3c9311b0	0.01795277
6	0xbd9077c0	-0.070540905
7	0x3e5a440d	0.21315022
8	0x3c4d4cef	0.012530549
9	0xbd8b4d3d	-0.068018414
10	0xbd1baadc	-0.03800474
11	0xbd6ad1a0	-0.05732882
12	0x3e7a3f09	0.24438109
13	0xbd5a0d88	-0.05323556
14	0x3d6c9841	0.05776239
15	0xbe644d8d	-0.22295208
16	0xbe023b0a	-0.12717834
17	0x3d921d96	0.07134549
18	0xbe06fee1	-0.13183166
19	0x3cc83d5a	0.024443317
20	0x3d65ed84	0.056134716
21	0x3d4ba267	0.049715426
22	0x3e8c4f30	0.27404165
23	0x3e086b24	0.13322121
24	0x3def3c1b	0.11681386
25	0x3d306c89	0.043072257
26	0x3c47cb13	0.012194413
27	0xbd8837b0	-0.066512465
28	0xb84839e2	-4.7737623e-05
29	0xbdb28fcf	-0.087188356
30	0x3e1d73d4	0.15376216
31	0xbd53d505	-0.051716823
32	0x3d0a56bf	0.033774134
33	0xbc7f55ec	-0.01558445
34	0xbd22898f	-0.039681967
35	0x3d93348b	0.07187756
36	0x3b0464a6	0.0020201593
37	0x3d2fe0ff	0.042939182
38	0xbcb67d1b	-0.022276452
39	0xbd43e4a5	-0.047825474
40	0x3d2ba3f2	0.041904397
41	0xbc95ea54	-0.018300213
42	0xbb53525a	-0.003224513
43	0x3cf0c518	0.029390857
44	0x3ba7a272	0.0051158005
45	0xbd196cc1	-0.03745723
46	0x3c52ad72	0.012858735
47	0xbcdd7a50	-0.027035862
48	0x3cf34f71	0.029700967
49	0xbd869d28	-0.06572944
50	0xbde13946	-0.10997252
51	0xbcbacfc4	-0.022804148
52	0x3c11948e	0.008885516
53	0x3e14baba	0.14524356
54	0x3df596f5	0.119916834
55	0xbd20fa54	-0.03930123
56	0x3bfb21fa	0.0076639624
57	0x3d704777	0.058661904
58	0x3e10d718	0.14144552
59	0x3cc9df01	0.02464247
60	0xbd9f6814	-0.07783523
61	0xbdab8ad6	-0.0837609
62	0x3d81e342	0.06342174
63	0x3c9ac011	0.018890413
64	0x3d89b6ce	0.0672432
65	0xbdc0359c	-0.09385225
66	0x3d49dbea	0.049281992
67	0x3b835158	0.0040074997
68	0x3d11409b	0.035462003
69	0x3d787033	0.060653877
70	0x3bb97bd0	0.0056605116
71	0xbc7d2080	-0.015449643
72	0x3d7c0196	0.06152495
73	0xbd3948b9	-0.04523537
74	0xbab3b153	-0.0013709463
75	0xbe22f8ef	-0.15915273
76	0xbd580be3	-0.05274571
77	0x3e64ede0	0.22356367
78	0x3e3c45dc	0.18386024
79	0x3e7fbb68	0.24973834
80	0xbe6800dd	-0.2265658
81	0xbda091ee	-0.07840334
82	0x3e630656	0.22170386
83	0x3e187389	0.14887823
84	0x3e64ec50	0.22355771
85	0xbe5f5c00	-0.21812439
86	0xbd0e6ec6	-0.03477361
87	0x3cc8fa72	0.024533484
88	0x3b33eb45	0.0027453464
89	0x3d9250d6	0.071443245
90	0xbe2e7d53	-0.17039995
91	0xbdb98437	-0.09058421
92	0x3e1ff2ea	0.15620008
93	0x3e2be0a0	0.16784906
94	0x3e0c14aa	0.13679758
95	0xbe0df37e	-0.13862416
96	0x3d05ca13	0.032663416
97	0x3d2f04f5	0.042729337
98	0x3c756e74	0.014979947
99	0x3dcc552f	0.09977185
100	0x3e5ec685	0.21755417
101	0x3dee13d2	0.11624874
102	0xbedbb9df	-0.42915246
103	0xbe8cd904	-0.2750932
104	0xbe86b6fc	-0.2631148
105	0x3ec7b4fd	0.3900527
106	0x3dec3102	0.11532785
107	0xbecbf14f	-0.3983254
108	0xbe6f4a9f	-0.2336831
109	0xbe740f93	-0.23834066
110	0x3f046194	0.5171139
111	0x3e4f2afc	0.20231241
112	0xbe73a1c4	-0.23792177
113	0xb9ef7407	-0.0004567208
114	0xbdc41243	-0.09573796
115	0x3f0c6c58	0.5485282
116	0x3eb071e5	0.34461895
117	0xbe2d087c	-0.16897768
118	0x3bae5540	0.005320221
119	0xbe592919	-0.21207084
120	0x3d274a61	0.040842418
121	0xbd802692	-0.06257357
122	0xbeb5e959	-0.35529593
123	0xbdf2362b	-0.11826738
124	0xbebccc14	-0.3687445
125	0x3e4352dd	0.19074579
126	0x3dc165ab	0.0944322
127	0xbea53d78	-0.3227346
128	0xbe0b5724	-0.1360746
129	0xbe926918	-0.28595805
130	0x3eec9274	0.46205485
131	0x3e5b6d82	0.21428493
132	0xbe8e13ee	-0.2774958
133	0xbdc9e767	-0.098585896
134	0xbe5c3cf1	-0.21507622
135	0x3eaf0b05	0.34188095
136	0x3df85422	0.12125422
137	0xbe41546c	-0.1887986
138	0x3d9ad801	0.07560731
139	0xbd7cc3e4	-0.061710253
140	0x3ee2971f	0.4425592
141	0x3e40eea8	0.1884104
142	0x3cf54c47	0.029943598
143	0xbcf36259	-0.029709982
144	0xbe3b772d	-0.1830718
145	0x3ce39b3e	0.027783986
146	0x3bebe7a0	0.0071992427
147	0xbe2755a1	-0.16341259
148	0xbc38dd00	-0.011283159
149	0xbeb4e204	-0.35328686
150	0x3e5a21cd	0.21301956
151	0x3d94a083	0.07257178
152	0xbda108b7	-0.0786299
153	0xbe1bb807	-0.1520692
154	0xbd781875	-0.0605702
155	0x3e85a4dc	0.2610234
156	0x3e4f1143	0.20221429
157	0xbb864221	-0.0040972386
158	0xbca9870e	-0.020694282
159	0xbd921b03	-0.07134058
160	0x3e8b0e25	0.2715923
161	0x3db91ee6	0.090390965
162	0xbc1675e4	-0.009183381
163	0xbd332429	-0.043735657
164	0x3cfb045c	0.030641727
165	0x3e455e09	0.19274153
166	0x3d6c952d	0.057759453
167	0x3dc26b62	0.09493138
168	0x3d4effdf	0.050536986
169	0xbda8ee53	-0.08248582
170	0xbd1fc4fc	-0.03900622
171	0xbd02046a	-0.03174249
172	0xbb1f3f60	-0.002429925
173	0xbca8a9e5	-0.020588825
174	0xbded9315	-0.11600319
175	0x3e00febb	0.12597172
176	0x3b27c6f5	0.0025600765
177	0xbb68d7d3	-0.0035529032
178	0xbd3cf906	-0.046135925
179	0xbe3e1cc8	-0.18565667
180	0x3e8b37f4	0.27191126
181	0x3e232e16	0.15935549
182	0x3cfe5974	0.031048514
183	0xbda3e35d	-0.080023505
184	0x3c36b67c	0.011151906
185	0x3e3843aa	0.17994562
186	0x3d9a7d9a	0.07543488
187	0x3c93d92b	0.01804789
188	0xbca75244	-0.02042497
189	0xbc4941cf	-0.012283756
190	0x3ddde601	0.108348854
191	0x3bd1211c	0.006382121
192	0x3d968fd4	0.07351652
193	0x3d1f9423	0.038959634
194	0xbd908df1	-0.07058323
195	0x3c1961fd	0.009361741
196	0xbca37ff4	-0.019958474
197	0x3c4df6c6	0.012571042
198	0x3aadeca5	0.0013269378
199	0xbd120ea3	-0.03565849
200	0xbdc7bcd5	-0.09752814
201	0x3c1c58c7	0.009542651
202	0x3d6594e4	0.056050196
203	0x3e26e222	0.162972
204	0x3da73e4b	0.08166178
205	0xbe011ba2	-0.12608197
206	0xbd317d74	-0.043332532
207	0xbdd2d4ae	-0.10294472
208	0x3dceec5a	0.10103674
209	0x3db8700f	0.090057485
210	0x3ce56ba4	0.028005429
211	0x3c324168	0.010879852
212	0xbe3f72cd	-0.18696137
213	0x3cc2295d	0.023701364
214	0xbca3f919	-0.02001624
215	0x3e23d5b7	0.15999494
216	0x3dc9edb0	0.098597884
217	0xbbe292e2	-0.0069144825
218	0x3e262b34	0.16227418
219	0x3cfd6ebb	0.03093659
220	0xbe26e30a	-0.16297546
221	0x3ad32ae6	0.0016110807
222	0xbe43731a	-0.19086877
223	0xbc9c7a14	-0.01910118
224	0xbdf9dce3	-0.12200334
225	0x3e4b64a3	0.19862609
226	0x3e12dde6	0.1434246
227	0x3e506569	0.20351185
228	0xbdd04cdf	-0.10170912
229	0xbda765a3	-0.081736825
230	0x3e51e7b4	0.20498544
231	0x3e67cfb4	0.22637826
232	0x3e8c6b5d	0.27425662
233	0x3dcc50d0	0.09976351
234	0x3e374940	0.17899036
235	0x3d963e8b	0.07336148
236	0x3ce7a56c	0.028277121
237	0x3e301c17	0.17198215
238	0xbd0adbc3	-0.033900987
239	0x3ca358e1	0.019939842
240	0xbc9f6a81	-0.019459965
241	0xbdec5118	-0.11538905
242	0x3e1a6b08	0.15079892
243	0xbc924aaf	-0.017857878
244	0x3d987ae2	0.07445313
245	0xbd72eddd	-0.059308875
246	0xbd87b2f0	-0.066259265
247	0x3e8426ec	0.25810945
248	0x3d10c247	0.035341527
249	0x3e46497a	0.19363967
250	0xbe378cb9	-0.17924775
251	0xbd9260a8	-0.07147342
252	0x3e534288	0.20630848
253	0x3e21c1bb	0.15796559
254	0x3e4f8400	0.20265198
255	0xbe9e09a5	-0.30866733

conv1.bias f4 [16]
0	0xbcae99ac	-0.02131351
1	0x3d52b8ee	0.051445894
2	0x3bc6d6a8	0.0060680695
3	0x3b613d57	0.0034368837
4	0xbc9992ac	-0.018746696
5	0xbd8d4711	-0.068983205
6	0xbd92af95	-0.07162396
7	0xbd15257a	-0.036412694
8	0xbd1e9a38	-0.038721293
9	0x3cc26ab0	0.023732513
10	0xbcb5a8ed	-0.022175277
11	0xbcf421be	-0.029801246
12	0x3d94bda2	0.07262732
13	0x3cd95c9d	0.02653342
14	0x3d5e6f17	0.054305162
15	0xbd170c88	-0.036877185

block1_1.freq_dw_conv.weight f4 [8, 1, 3, 1]
0	0x3e563b28	0.20921004
1	0x3ea8b9cd	0.32954255
2	0xbd3cc0b8	-0.04608223
3	0xbcdb5508	-0.026773944
4	0x3e9b8d75	0.3038136
5	0x3d3ceead	0.046126056
6	0xbf5d1aa0	-0.8636875
7	0x3cbf8bbc	0.02338206
8	0x3f5d3b3f	0.8641853
9	0xbda546a7	-0.080701165
10	0xbdd9de51	-0.106381066
11	0xbe3848d9	-0.17996539
12	0xbf923066	-1.142102
13	0xbf021635	-0.50815135
14	0x3f3b42c2	0.7314874
15	0xbf030d9e	-0.51192653
16	0x3f0ac962	0.54213536
17	0x3f6b2818	0.91858053
18	0x3d43e675	0.047827203
19	0x3f13922a	0.57644904
20	0xbe8474b7	-0.25870296
21	0x3e2dcc02	0.16972354
22	0x3e7cf89e	0.24704215
23	0x3f5df6e1	0.8670483

block1_1.ssn.bn.weight f4 [40]
0	0x3ef3e75f	0.4763746
1	0x3eabf056	0.335818
2	0x3ebb08aa	0.36530048
3	0x3ea29e0f	0.31761214
4	0x3ebd1a28	0.36934018
5	0x3ec1bfc9	0.37841633
6	0x3eb54fc0	0.35412407
7	0x3ebe027c	0.3711127
8	0x3ece2448	0.40262055
9	0x3e84674f	0.25860068
10	0x3f643a7f	0.8915176
11	0x3e92319c	0.28553474
12	0x3ee71872	0.45135838
13	0x3f0f5e53	0.560033
14	0x3ee4fc47	0.44723722
15	0x3efad7e7	0.48992845
16	0x3e713724	0.2355619
17	0x3e9a551b	0.30143055
18	0x3e85d091	0.26135686
19	0x3ebcdc9b	0.3688706
20	0x3eb77fd8	0.35839725
21	0x3f2052ab	0.6262614
22	0x3f67a6f8	0.9048915
23	0x3f9ce1d8	1.2256422
24	0x3f497b5f	0.78703874
25	0x3f673c4d	0.90326387
26	0x3f59a4d2	0.8501712
27	0x3f2d4172	0.67677987
28	0x3f520f7a	0.82054865
29	0x3f59b5c8	0.85043
30	0x3f1a5c5a	0.6029717
31	0x3e885dc3	0.26634035
32	0x3f1577fd	0.5838621
33	0xbe394872	-0.18094042
34	0x3eadd727	0.3395321
35	0x3ee61a08	0.44941735
36	0x3d6170ce	0.05503922
37	0x3ef062da	0.46950418
38	0xbe49be01	-0.19701387
39	0x3f2d8075	0.67774135

block1_1.ssn.bn.bias f4 [40]
0	0xbaf490ce	-0.0018658878
1	0x3ed6b82e	0.41937393
2	0x3ebb0c2d	0.36532727
3	0x3e6d81d5	0.23194058
4	0x3e73c11a	0.23804131
5	0x3b3af46e	0.002852704
6	0xbd00a478	-0.03140685
7	0xbd741ddd	-0.059598792
8	0x3d846974	0.06465426
9	0x3e074a0f	0.13211845
10	0xbd216742	-0.039405115
11	0xbe12cab5	-0.14335139
12	0xbe25c459	-0.16188182
13	0xbc69722b	-0.014248411
14	0xbcb4bfbe	-0.022064086
15	0x3d68bd94	0.05682142
16	0xbe3f257f	-0.18666647
17	0xbce18ab1	-0.027531954
18	0xbe133322	-0.14374974
19	0x3d3a9d3e	0.045560114
20	0x3f1d2fc8	0.61401033
21	0x3efd9f12	0.49535424
22	0x3f2580ef	0.6464986
23	0x3f560bd4	0.836118
24	0x3e9fd5cb	0.312178
25	0x3e3468ec	0.1761815
26	0x3e407415	0.18794282
27	0x3ef9a193	0.48756084
28	0x3f02700c	0.5095222
29	0x3e50b606	0.20381936
30	0xbe4e6f8c	-0.2015974
31	0xbd48cab8	-0.049021453
32	0xbe007280	-0.12543678
33	0xbe8c92ee	-0.27455848
34	0x3e10c9d6	0.14139494
35	0x3e7fd1f6	0.24982437
36	0xbe92ff34	-0.2871033
37	0xbc35ae2d	-0.01108889
38	0xbf51f0ff	-0.82008356
39	0x3f18c855	0.5968068

block1_1.ssn.bn.running_mean f4 [40]
0	0x2b4c492f	7.257692e-13
1	0x2bbc9631	1.339989e-12
2	0x2bd6684e	1.5234565e-12
3	0x2bfc8a6e	1.7944099e-12
4	0x2c144e6f	2.1075604e-12
5	0x3e1393de	0.14411876
6	0x3dd86c37	0.10567515
7	0x3db9f7e7	0.09080487
8	0x3daa46ba	0.08314271
9	0x3da1d16d	0.07901273
10	0x3b3acf22	0.0028504808
11	0xbc84b7b7	-0.016200883
12	0x3a4014f3	0.00073273404
13	0x3b33aca5	0.0027416137
14	0x3d27cef9	0.04096887
15	0xbd20130a	-0.039080657
16	0xbd84cd19	-0.06484432
17	0xbda9e4cc	-0.08295593
18	0xbdd0106a	-0.10159381
19	0xbdb1e436	-0.08686106
20	0xbf1b1dbd	-0.6059225
21	0xbf721334	-0.9456055
22	0xbf75d6d0	-0.960309
23	0xbf7791c3	-0.9670679
24	0xbf9689ec	-1.176084
25	0x3f38d488	0.72199297
26	0x3ee7f57c	0.45304477
27	0x3ecdf8b3	0.40228805
28	0x3eba78b2	0.36420208
29	0x3e8c4f87	0.27404425
30	0x3c941b40	0.0180794
31	0x3d33a109	0.043854747
32	0x3d682f44	0.0566857
33	0x3d8b171e	0.06791519
34	0x3da46eda	0.08028956
35	0x3e05ae89	0.13054861
36	0x3e54f3d1	0.20796134
37	0x3e82691a	0.2547081
38	0x3e998b34	0.29989016
39	0x3e8483d2	0.2588182

block1_1.ssn.bn.running_var f4 [40]
0	0x28e8f386	2.5862786e-14
1	0x295f4489	4.957539e-14
2	0x297d1185	5.619248e-14
3	0x2994d004	6.608605e-14
4	0x29ac4186	7.649701e-14
5	0x3bdedb79	0.0068010655
6	0x3be20970	0.0068980977
7	0x3bdc6cd6	0.0067268414
8	0x3be0f726	0.0068654
9	0x3bcb8d8c	0.006211942
10	0x3d79ea56	0.061014496
11	0x3c79281e	0.015207319
12	0x3c0ea906	0.0087072905
13	0x3bcdb0d4	0.006277183
14	0x3d59894e	0.05310946
15	0x3c980251	0.018555792
16	0x3d05de69	0.03268281
17	0x3d2247b4	0.039619163
18	0x3d3e2779	0.046424363
19	0x3d068c5a	0.032848693
20	0x3e9475ba	0.28996068
21	0x3cd6a406	0.02620126
22	0x3ccf4869	0.025303083
23	0x3cd7e556	0.026354473
24	0x3dfebe70	0.12438667
25	0x3ef6c750	0.48198938
26	0x3e8f4c51	0.27987912
27	0x3e88c1cd	0.26710358
28	0x3e88406e	0.26611656
29	0x3e5ed698	0.21761549
30	0x3bc398e3	0.0059691533
31	0x3c09c9a8	0.008409895
32	0x3c242f9a	0.010021115
33	0x3c3dd238	0.011585765
34	0x3c8b27c2	0.016986731
35	0x3d878ff2	0.06619252
36	0x3dd0b4d8	0.10190743
37	0x3dee714c	0.116427034
38	0x3e04792f	0.12936853
39	0x3dcd40b8	0.1002211

block1_1.temp_dw_conv.weight f4 [8, 1, 1, 3]
0	0xbe2c5b81	-0.16831781
1	0x3e97ab86	0.2962305
2	0xbecbfb40	-0.39840126
3	0x3d4be5d6	0.049779736
4	0x3e04a43c	0.12953275
5	0xbefa2be2	-0.48861605
6	0xbee1b64f	-0.44084403
7	0xbd953b6a	-0.07286723
8	0xbd407cb2	-0.04699392
9	0xbde3e739	-0.111280866
10	0x3bf902de	0.0075992187
11	0xbe7e39f1	-0.2482679
12	0xbe5240c4	-0.20532519
13	0xbc34f596	-0.01104488
14	0xbc742e8e	-0.014903678
15	0xbddb4f76	-0.10708515
16	0xbd09824c	-0.033571526
17	0x3efd0404	0.49417126
18	0x3e817b15	0.25289217
19	0x3ccf958e	0.025339868
20	0x3e0b5c3e	0.13609406
21	0x3dbd824c	0.09253368
22	0x3df0e724	0.117628366
23	0x3e2e5bf8	0.17027271

block1_1.bn1.weight f4 [8]
0	0xbdfd4a5f	-0.12367701
1	0x3e98b9e1	0.29829314
2	0x3f51b9b2	0.81923974
3	0xc0055013	-2.0830123
4	0x3e181923	0.14853339
5	0x3f461039	0.77368504
6	0x3f200209	0.62503105
7	0x3f0c66cf	0.54844373

block1_1.bn1.bias f4 [8]
0	0xbf23e1b4	-0.6401627
1	0x3e99a272	0.30006748
2	0xbeab48e1	-0.3345404
3	0xbfefbe3b	-1.8729929
4	0x3f8306b1	1.0236417
5	0x3ebdd404	0.37075818
6	0xbe8fd2a5	-0.28090397
7	0xbde83e4e	-0.11340009

block1_1.bn1.running_mean f4 [8]
0	0x4131c133	11.109668
1	0xc12790c1	-10.47284
2	0xc1678112	-14.469011
3	0xc0d17408	-6.545414
4	0x40a03479	5.0064054
5	0xc1d2fd5c	-26.37371
6	0x419d35f5	19.651346
7	0x411cd680	9.802368

block1_1.bn1.running_var f4 [8]
0	0x429f0ea2	79.52858
1	0x4264598d	57.087452
2	0x43511445	209.07918
3	0x41d2a406	26.33009
4	0x430b1438	139.07898
5	0x43b5df66	363.7453
6	0x43721c32	242.11014
7	0x423d71e5	47.361225

block1_1.bn2.weight f4 [8]
0	0xbde83dc9	-0.113399096
1	0x3e7b883a	0.24563685
2	0x3d8acf7a	0.06777854
3	0x3d6597d3	0.056052994
4	0x3d813798	0.06309432
5	0x3eadb54d	0.33927384
6	0xbe07f1b4	-0.13275796
7	0x3e9a76d4	0.30168784

block1_1.bn2.bias f4 [8]
0	0xbd656b96	-0.056010805
1	0xbdc79201	-0.09744645
2	0xbe546a22	-0.20743611
3	0xbde2d642	-0.11076023
4	0x3d60adfd	0.05485343
5	0xbcd42bdf	-0.025899826
6	0xbdabc1b3	-0.083865546
7	0xbe6f3428	-0.2335974

block1_1.bn2.running_mean f4 [8]
0	0xbd8a63ce	-0.067573175
1	0xbbf8dc54	-0.0075946245
2	0x3d2cd163	0.042191874
3	0x3c81a742	0.015826825
4	0xbe073881	-0.13205148
5	0x3de4e742	0.111769214
6	0xbd308db5	-0.043103892
7	0xbca7744e	-0.0204412

block1_1.bn2.running_var f4 [8]
0	0x38915484	6.929881e-05
1	0x3c2cf1b4	0.010555673
2	0x3b6fed15	0.0036609818
3	0x3bfc551c	0.0077005755
4	0x3c7ee073	0.015556443
5	0x3d860669	0.065441914
6	0x3c0d7f7c	0.008636352
7	0x3c11fae7	0.008909917

block1_1.conv1x1_1.weight f4 [8, 16, 1, 1]
0	0xbe189ed2	-0.14904335
1	0xbd235b31	-0.03988189
2	0xbd1ed4ee	-0.038777284
3	0xbd8a6696	-0.06757848
4	0x3e8fd97d	0.28095618
5	0x3dd20fdd	0.10256932
6	0x3c28d060	0.010303587
7	0xbbf9d98a	-0.0076248096
8	0x3d0c7586	0.034291767
9	0xbdf00b89	-0.1172095
10	0xbda3ac9e	-0.079919085
11	0x3e2ca330	0.16859126
12	0xbe1fb87f	-0.15597723
13	0x3e186191	0.14880969
14	0xbc5e1a12	-0.01355602
15	0xbc2f6206	-0.010704523
16	0x3debd0f7	0.11514466
17	0xbcb515c7	-0.02210511
18	0xbd8592de	-0.06522153
19	0x3d09b74b	0.033622067
20	0xbe0b0b30	-0.13578486
21	0xbd54e3a2	-0.0519749
22	0x3deebc3b	0.11656996
23	0x3d7a1cd0	0.061062634
24	0x3d06fa6f	0.032953676
25	0x3e5d4780	0.21609306
26	0x3d10f2be	0.035387747
27	0xbd621d6b	-0.055203836
28	0x3e0fb848	0.14035141
29	0xbe02981a	-0.12753335
30	0xbc80752e	-0.015680876
31	0x3d7cf527	0.061757233
32	0x3e8aa39d	0.27077952
33	0xbd4b2aae	-0.04960125
34	0x3d135604	0.035970703
35	0x3dd3e66f	0.10346686
36	0xbf105d08	-0.56391954
37	0xbed1da50	-0.40986872
38	0xbe47d371	-0.19514252
39	0xbdba627c	-0.09100816
40	0xbe64acf6	-0.22331604
41	0x3da6bff0	0.08142078
42	0x3e337d1f	0.17528199
43	0xbeba6819	-0.36407545
44	0x3c64fa4e	0.013975693
45	0xbe7e6c12	-0.24845913
46	0x3d9193c9	0.07108266
47	0xbe6bb0f6	-0.23016724
48	0x3e2549db	0.16141455
49	0xbdb16424	-0.086616784
50	0xbd2dbc91	-0.04241616
51	0xbd58faa8	-0.05297342
52	0xbdc7ae5d	-0.09750054
53	0xbe0886c0	-0.13332653
54	0x3d26b462	0.04069937
55	0xbcf9d994	-0.030499257
56	0xbd9e4b45	-0.077292
57	0x3daebd34	0.085321814
58	0x3ba5e8b4	0.0050631408
59	0xbd9189b6	-0.071063444
60	0x3db4dec4	0.08831552
61	0xbe4135a3	-0.18868117
62	0x3d7f2e59	0.06230006
63	0xbc785bb0	-0.015158579
64	0xbcd415e3	-0.025889343
65	0x3dce0e49	0.100613184
66	0xbda42264	-0.08014372
67	0xbe9fc55a	-0.31205255
68	0x3f1128d2	0.5670291
69	0x3f066376	0.52495515
70	0x3e972bee	0.29525703
71	0x3e830920	0.255929
72	0xbdcb8894	-0.099381596
73	0x3e10b9e5	0.14133413
74	0xbea2bfd8	-0.3178699
75	0x3e460f05	0.19341667
76	0x3bcf9788	0.0063352026
77	0x3dee81c0	0.116458416
78	0xbd3c6afd	-0.04600047
79	0x3e520396	0.2050918
80	0x3dc4fb29	0.096182175
81	0x3cbc0205	0.022950182
82	0x3dd0cb99	0.10195083
83	0x3e647304	0.223095
84	0xbe2e80fc	-0.17041391
85	0xbd67a01b	-0.056549173
86	0x3e43da61	0.19126274
87	0x3e38705d	0.18011613
88	0xbd31846f	-0.04333919
89	0x3f088c8f	0.53339475
90	0x3e3ddadf	0.18540524
91	0xbe624cff	-0.22099684
92	0x3ec77d99	0.3896301
93	0xbe65ad97	-0.224295
94	0xbde0f08a	-0.10983379
95	0xbdad8a04	-0.0847359
96	0xbe08c632	-0.13356856
97	0x3c0cb241	0.008587421
98	0xbdaff7cc	-0.085921854
99	0xbe53eda7	-0.20696126
100	0x3ec7836d	0.38967457
101	0x3e161c3d	0.1465921
102	0xbcfb4c16	-0.030675929
103	0xbd2a082c	-0.0415117
104	0xbca28182	-0.019837145
105	0xbe951ad7	-0.2912204
106	0xbe56948b	-0.20955102
107	0x3e6b9716	0.23006853
108	0xbe78e4bd	-0.24306007
109	0x3e5ef306	0.21772394
110	0x3d451133	0.048112106
111	0x3de01e85	0.10943321
112	0xbe596051	-0.21228148
113	0x3b7e3aa8	0.0038792286
114	0x3d704af9	0.05866525
115	0x3d5eb88d	0.05437522
116	0x3d079fc2	0.03311134
117	0xbe45c38d	-0.19312878
118	0xbe36175a	-0.17782345
119	0xbdee7bdf	-0.1164472
120	0x3d9beba0	0.07613301
121	0xbe2e2fc0	-0.17010403
122	0x3db41c07	0.08794408
123	0x3df41658	0.11918324
124	0xbdf3df9a	-0.11907883
125	0x3e40eab9	0.1883954
126	0x3d91d53a	0.07120748
127	0xbd4717d2	-0.0486067

block1_1.conv1x1_2.weight f4 [8, 8, 1, 1]
0	0xbd4fc00d	-0.050720263
1	0x3e26d9d8	0.16294038
2	0xbda73197	-0.081637554
3	0xbe33970d	-0.1753809
4	0xbd92f6bc	-0.07175967
5	0x3ec90e68	0.39268804
6	0xbd013abd	-0.031550158
7	0x3e3a7509	0.18208708
8	0xbd3f66ff	-0.046729084
9	0x3dc6c70d	0.09705935
10	0xbbd43d73	-0.006477052
11	0x3da869a4	0.08223274
12	0x3d42076e	0.047370367
13	0xbd8b3bf6	-0.06798546
14	0xbe7d4c2f	-0.24736093
15	0xbe176534	-0.147847
16	0xbca9bd95	-0.020720283
17	0x3dd8d273	0.10587015
18	0x3e70f2a1	0.23530056
19	0xbd823352	-0.06357445
20	0xbd20be50	-0.039243996
21	0xbe01b945	-0.12668331
22	0x3d6d4a56	0.05793222
23	0xbdd856cf	-0.105634324
24	0x3e46290b	0.19351594
25	0xbe92f2fe	-0.28701013
26	0xbc004559	-0.007829034
27	0x3e22aa4d	0.15885277
28	0xbd965ce0	-0.07341933
29	0x3ea08cc0	0.31357384
30	0xbdcdedbc	-0.1005511
31	0xbd023cda	-0.031796314
32	0xbda0953c	-0.07840964
33	0xbd28966f	-0.04115909
34	0xbd42f6ce	-0.047598653
35	0xbe2f57f5	-0.17123397
36	0x3de368ac	0.11103949
37	0x3c68e6be	0.0142151695
38	0x3cd257e1	0.02567667
39	0xbcaaf158	-0.020867035
40	0xbdd9400b	-0.10607918
41	0x3e0d2112	0.13782147
42	0x3ca2acc0	0.019857764
43	0x3e0b23a4	0.13587815
44	0xbd3e564b	-0.046469014
45	0xbe31d419	-0.17366065
46	0xbdbb2fed	-0.091400005
47	0xbe84ae5c	-0.25914276
48	0xbc989167	-0.01862402
49	0xbe33777f	-0.17526053
50	0x3dd702b0	0.104985595
51	0xbca35a87	-0.019940628
52	0xbdaed8e0	-0.085374594
53	0x3df9b824	0.12193325
54	0x3db631a3	0.08896186
55	0x3de139d4	0.10997358
56	0xbda4c22b	-0.08044847
57	0x3e43bd8c	0.19115275
58	0x3e123daf	0.14281343
59	0x3e1fb896	0.15597758
60	0x3da18cc0	0.07888174
61	0x3def3621	0.11680246
62	0xbd5ae8ef	-0.0534448
63	0xbc3529d6	-0.011057338

block1_2.freq_dw_conv.weight f4 [8, 1, 3, 1]
0	0x3e08db76	0.13364968
1	0xbe57163c	-0.21004575
2	0xbde09bff	-0.10967254
3	0xbd7d681a	-0.061866857
4	0xbef6803c	-0.4814471
5	0x3da15e09	0.07879264
6	0xbf20da1c	-0.6283281
7	0xbdce8731	-0.100843795
8	0x3f306f82	0.6892015
9	0x3dba0ce3	0.09084489
10	0x3e50fd18	0.20409048
11	0x3e1eb3c7	0.15498267
12	0x3fa6ca4d	1.3030487
13	0xbebfca51	-0.37459043
14	0xbf2f85f0	-0.6856375
15	0xbcf09178	-0.02936624
16	0x3eee134c	0.46499097
17	0x3f0f9526	0.5608696
18	0xbee68710	-0.4502492
19	0x3ed63b65	0.4184219
20	0x3ec9aaeb	0.39388213
21	0x3e9714fb	0.29508194
22	0x3eb7f9fe	0.35932916
23	0x3fb33e15	1.4003321

block1_2.ssn1.bn.weight f4 [40]
0	0x3ebeca80	0.3726387
1	0x3e91ef22	0.28502756
2	0x3e778bbc	0.24174398
3	0x3e7ad035	0.24493487
4	0x3eb1afd6	0.34704465
5	0x3f0ce070	0.55029964
6	0x3eb8e88d	0.36114922
7	0x3ee13ea0	0.43993092
8	0x3e3b2f46	0.18279752
9	0x3ed9f928	0.42572904
10	0x3ed1cc1a	0.4097603
11	0xbd7fdf85	-0.062469024
12	0x3ecf86b0	0.40532446
13	0x3eca6917	0.39533302
14	0x3f6656f8	0.89976454
15	0x3e6bedfe	0.23040006
16	0x3ea39945	0.31952873
17	0x3e30f268	0.1727997
18	0x3ded1041	0.11575366
19	0x3eb62c46	0.35580653
20	0x3ee6f83a	0.45111257
21	0x3f4d5143	0.8020212
22	0x3f769a35	0.9632905
23	0x3f78d168	0.9719453
24	0x3ed6cd72	0.41953617
25	0x3f30ddf6	0.69088686
26	0x3f35e441	0.7105141
27	0x3f213bd6	0.6298193
28	0x3f01a122	0.50636494
29	0x3f0fd841	0.5618935
30	0x3f10bd3f	0.56538767
31	0x3f031812	0.51208603
32	0x3ef31299	0.47475126
33	0x3fb6aa60	1.4270744
34	0x3f030190	0.5117426
35	0x3e4f5bf6	0.20249924
36	0x3f046aed	0.51725656
37	0x3ea9fc2e	0.3320021
38	0x3e80cb5e	0.25155157
39	0x3df4d861	0.119553335

block1_2.ssn1.bn.bias f4 [40]
0	0x3cf9efb5	0.030509809
1	0x3d694340	0.0569489
2	0xbd93d6dc	-0.072187155
3	0xbc8d987b	-0.017284622
4	0x3d81e239	0.06341977
5	0x3b07f9bf	0.0020748226
6	0xbe16cdf3	-0.14727001
7	0x3d3c2d67	0.045941737
8	0xbe4d5b7d	-0.20054431
9	0x3cd3e6ca	0.025866885
10	0x3e8a1b94	0.26974165
11	0xbe0d03dd	-0.13771005
12	0xbde1dce2	-0.11028458
13	0xbd8d1780	-0.06889248
14	0x3cf3fe30	0.029784292
15	0xbd80d2ff	-0.06290244
16	0xbd6fb33b	-0.058520537
17	0xbe2a6634	-0.1664055
18	0xbdfde459	-0.123970695
19	0xbca27113	-0.019829309
20	0xbe8769da	-0.26447946
21	0x3e4e4a0a	0.20145431
22	0xbdb292e4	-0.087194234
23	0x3eadb25d	0.33925143
24	0x3ef51945	0.47870842
25	0xbc22203e	-0.009895382
26	0x3e00567f	0.12532996
27	0x3e333706	0.17501459
28	0x3ee4326b	0.44569716
29	0xbe53f85f	-0.20700215
30	0xbdff4b47	-0.1246553
31	0x3e72fe04	0.23729712
32	0xbe9053ab	-0.28188834
33	0xbdfd989c	-0.123826236
34	0x3e05e76f	0.13076566
35	0xbcb5aa39	-0.022175895
36	0xbda49006	-0.08035283
37	0xbd9517d1	-0.07279933
38	0xbe96d38d	-0.29458275
39	0xbe59d22d	-0.21271582

block1_2.ssn1.bn.running_mean f4 [40]
0	0xbc83925a	-0.016060997
1	0xbdba5440	-0.09098101
2	0xbd8230e2	-0.0635698
3	0xbd229ac2	-0.03969837
4	0xbd1f559a	-0.038899995
5	0xbda30f4c	-0.07961902
6	0xbd892bc6	-0.06697802
7	0xbd7a02d9	-0.061037872
8	0xbdbe7b77	-0.09300893
9	0xbdaecc74	-0.0853509
10	0xbdb2fd3a	-0.087397054
11	0xbbf7310e	-0.0075436896
12	0x3c54b899	0.012983465
13	0xbc0f80f3	-0.008758771
14	0xbc75145c	-0.014958467
15	0x3d915c15	0.070976414
16	0x3c84efdf	0.01622766
17	0x3d250bc2	0.040294416
18	0x3cb3dc57	0.021955652
19	0x3d8b71c2	0.06808807
20	0x3ddd0097	0.10791128
21	0x3d3bbbee	0.04583352
22	0x3d579ebf	0.052641626
23	0x3e1c71e2	0.15277818
24	0x3f0ca317	0.54936355
25	0x3ed961ea	0.42457515
26	0x3ee42121	0.44556525
27	0x3f056690	0.5210962
28	0x3f0903c4	0.5352137
29	0x3e9ede1a	0.31028825
30	0x3d9c4d60	0.076319456
31	0x3cd323aa	0.025773842
32	0x3d7fe7d4	0.062476948
33	0xbbd259aa	-0.00641938
34	0x3d49c343	0.04925848
35	0x3ed565b7	0.41679165
36	0x3dae006e	0.08496176
37	0x3ea2c0c2	0.31787688
38	0x3e93db0b	0.28878054
39	0x3f6b7b60	0.9198513

block1_2.ssn1.bn.running_var f4 [40]
0	0x3a1376e8	0.00056253234
1	0x3a59fd4f	0.0008315639
2	0x3988975e	0.0002605272
3	0x3995a439	0.0002854185
4	0x39a3b682	0.00031225762
5	0x3bd208be	0.0064097336
6	0x3c0543b9	0.008133822
7	0x3c1cc1d3	0.009567696
8	0x3c9840fc	0.018585674
9	0x3c3defe5	0.01159284
10	0x3e2dede1	0.16985275
11	0x3ca388ce	0.019962694
12	0x3d5e50c9	0.05427626
13	0x3d924052	0.071411744
14	0x3dc044e6	0.09388141
15	0x3b553b49	0.0032536557
16	0x3a931172	0.0011220409
17	0x3b2d9c29	0.0026490784
18	0x3b0002cb	0.0019532915
19	0x3b899ed7	0.0041998434
20	0x3f05e896	0.5230802
21	0x3e32444d	0.17408867
22	0x3e807d74	0.25095713
23	0x3ee72cf3	0.4515148
24	0x3ec489db	0.38386425
25	0x3e77160a	0.24129501
26	0x3ec3ea01	0.38264468
27	0x3ed81412	0.42202812
28	0x3f18b4cc	0.59650874
29	0x3ecadd37	0.396219
30	0x3d8ce2d2	0.068792
31	0x3c62beb8	0.013839416
32	0x3d0469f5	0.03232761
33	0x3c66bec1	0.014083565
34	0x3d1d8a67	0.03846207
35	0x3f2e4e42	0.6808816
36	0x3d917be9	0.07103712
37	0x3ebd7950	0.37006617
38	0x3f08a60f	0.53378385
39	0x3fa682ba	1.3008645

block1_2.temp_dw_conv.weight f4 [8, 1, 1, 3]
0	0x3da125b4	0.078685194
1	0xbc9d2246	-0.019181382
2	0xbe729c09	-0.23692335
3	0xbe14da54	-0.1453641
4	0xbebe71cb	-0.37196192
5	0x3e561345	0.20905788
6	0xbe219d7e	-0.15782735
7	0xbc1d05e6	-0.009583926
8	0xbe8513fe	-0.25991815
9	0xbe53474f	-0.20632671
10	0xbcdae0d6	-0.026718538
11	0x3e36b970	0.17844176
12	0x3d304156	0.04303106
13	0x3e5e7a99	0.21726455
14	0x3cdc93a5	0.026925871
15	0x3da8ee5c	0.082485884
16	0xbcd54230	-0.026032537
17	0x3e913392	0.28359658
18	0xbdea26ac	-0.11433157
19	0x3e6cba3e	0.23117921
20	0x3dd21e21	0.10259653
21	0xbdaacb32	-0.08339538
22	0xbdcd4470	-0.10022819
23	0xbe49a689	-0.19692434

block1_2.bn.weight f4 [8]
0	0x3dba5ceb	0.09099754
1	0x3e5e6591	0.21718432
2	0x3d9e8494	0.07740131
3	0x3dfeacf9	0.12435336
4	0x3ddbe336	0.107366964
5	0x3ef1a79d	0.4719819
6	0x3ea1e33d	0.31618682
7	0x3dc92544	0.09821561

block1_2.bn.bias f4 [8]
0	0xbc3cae2f	-0.011516138
1	0xbde2494f	-0.11049139
2	0x3c1061eb	0.008812408
3	0xbe012b58	-0.1261419
4	0xbdcad9e3	-0.0990484
5	0x3e2b0034	0.16699296
6	0xbd8aa17c	-0.06769082
7	0xbd86c1a4	-0.06579903

block1_2.bn.running_mean f4 [8]
0	0xbb07f74b	-0.0020746763
1	0x3c83fe8e	0.016112592
2	0x3aa338cc	0.001245284
3	0x3b9ee75c	0.0048493575
4	0x3d1a3633	0.037649345
5	0x3d15dde9	0.036588583
6	0xbc018f9c	-0.007907774
7	0x3d53f2ff	0.05174541

block1_2.bn.running_var f4 [8]
0	0x3ad0c725	0.001592849
1	0x3c4d1276	0.012516608
2	0x39b57cba	0.0003461594
3	0x3a0e1f25	0.0005421511
4	0x3a4fc2f7	0.00079254754
5	0x3d1088fe	0.035286896
6	0x3aff49c8	0.0019476945
7	0x3ba74a16	0.0051052673

block1_2.conv1x1.weight f4 [8, 8, 1, 1]
0	0x3cef0d49	0.02918114
1	0xbd7a496b	-0.061105173
2	0x3c4864e9	0.01223109
3	0xbc1ae6d1	-0.009454445
4	0xbda8bb02	-0.08238794
5	0x3d1fbd4d	0.03899889
6	0xbc554552	-0.0130170155
7	0x3c8eb034	0.017418005
8	0xbd38167d	-0.04494332
9	0xbabdd636	-0.0014483395
10	0xbc51a7d6	-0.012796363
11	0x3df7177c	0.12065026
12	0x3c24cfe8	0.010059334
13	0xbe16fd8c	-0.14745158
14	0xbdf89577	-0.12137883
15	0xbdbd4454	-0.09241548
16	0x3ca96558	0.020678207
17	0x3e161704	0.14657217
18	0xbd5e0d9e	-0.054212205
19	0x3cf847fb	0.03030776
20	0x3dd8f047	0.10592704
21	0xbebefbe1	-0.37301543
22	0x3c02fd69	0.007994988
23	0x3c65e4e8	0.014031626
24	0x3c42bf80	0.0118864775
25	0x3b60fe0c	0.0034331111
26	0x3d8a17b9	0.06742806
27	0x3cf0909b	0.029365828
28	0xbc75b950	-0.014997795
29	0x3e78617e	0.2425594
30	0x3dacaedb	0.084317885
31	0x3da7281c	0.08161947
32	0x3d31ac17	0.04337701
33	0xbcd41d27	-0.025892807
34	0xbabdeb79	-0.0014489732
35	0x3e0bb49a	0.13643113
36	0xbba479ea	-0.005019416
37	0xbc6afa45	-0.0143418955
38	0xbd5f6342	-0.05453802
39	0x3d6bffd7	0.057617035
40	0xbd938f9a	-0.07205124
41	0x3e678b60	0.22611761
42	0x3d1819ef	0.037134107
43	0x3c33286a	0.010934928
44	0xbd70ca60	-0.05878675
45	0xbe9209c5	-0.2852308
46	0xbd8fe6a1	-0.07026411
47	0x3d5ff9ba	0.054681517
48	0x3daf6ffe	0.08566283
49	0x3d830529	0.063974686
50	0xbc4cf8f6	-0.012510529
51	0x3c948398	0.018129155
52	0xbd52d6cd	-0.05147438
53	0x3d888d7c	0.06667611
54	0x3d7cf7d1	0.061759774
55	0x3d8626a5	0.065503396
56	0xbca9b72b	-0.020717224
57	0xbe0c3bfd	-0.13694759
58	0x3c93d9cd	0.018048191
59	0xbc850478	-0.016237482
60	0xbdb31602	-0.08744432
61	0x3e1d58b5	0.1536587
62	0x3d8bd20d	0.068271734
63	0x3a44a27e	0.000750102

block2_1.freq_dw_conv.weight f4 [12, 1, 3, 1]
0	0xbe17f668	-0.1484009
1	0x3e84a49c	0.25906837
2	0x3b289a13	0.00257266
3	0xbea871a6	-0.32899207
4	0xbf4d3301	-0.8015595
5	0xbf100b40	-0.56267166
6	0xbe48f4c1	-0.19624616
7	0xbebd80d2	-0.37012345
8	0x3d2ab21e	0.041673772
9	0x3ec595b3	0.38590774
10	0x3f089257	0.53348297
11	0x3f2e2827	0.6803002
12	0xbe746a5c	-0.23868698
13	0xbe91a555	-0.2844645
14	0xbe19cadd	-0.15018792
15	0x3f827386	1.0191505
16	0xbb80be86	-0.003928962
17	0xbe440ac7	-0.19144736
18	0xbf63ad32	-0.8893615
19	0x3ed8878d	0.42290917
20	0xbe9e41ed	-0.30909672
21	0x3edf4b3c	0.43612087
22	0xbd20134d	-0.039080907
23	0x3e4bf55a	0.19917813
24	0x3f1d7a3d	0.61514646
25	0xbdcd69d4	-0.10029951
26	0xbb9a0a5b	-0.0047009415
27	0xbda79c9a	-0.08184166
28	0xbe825591	-0.25455907
29	0xbe8e4d50	-0.2779336
30	0xbe43dfdb	-0.19128363
31	0x3e929760	0.28631115
32	0xbef3b934	-0.47602236
33	0xbe7610d6	-0.2402986
34	0xbf46d95f	-0.7767543
35	0xbc910fbf	-0.017707704

block2_1.ssn.bn.weight f4 [60]
0	0x3ec03730	0.37542105
1	0x3ee0634f	0.43825766
2	0x3ecea4a6	0.40359992
3	0x3ec56caf	0.38559482
4	0x3e960e76	0.29307908
5	0x3ef8c636	0.48588723
6	0x3ed30c27	0.4122021
7	0x3ecbd701	0.39812472
8	0x3e8c6462	0.27420336
9	0x3e36e355	0.17860158
10	0x3ee1c23b	0.440935
11	0x3f0e6605	0.5562442
12	0x3ebeef1f	0.3729181
13	0x3eb8332e	0.35976547
14	0x3ecb4625	0.39701954
15	0x3e1205dc	0.14260048
16	0x3f3dad8c	0.74092937
17	0x3ef22d85	0.47300354
18	0x3cf521db	0.02992337
19	0x3f290f99	0.66039425
20	0x3f0fdb0e	0.56193626
21	0x3ee70110	0.45117998
22	0x3e73d895	0.23813088
23	0x3eef0055	0.4667994
24	0x3ec62c57	0.38705704
25	0x3f297014	0.6618664
26	0x3e5a13e8	0.21296656
27	0xbd96de7a	-0.07366653
28	0x3f985ab0	1.1902676
29	0x3e677391	0.22602679
30	0x3f1fbe6f	0.62399954
31	0x3ef5b498	0.47989345
32	0x3f3c8053	0.7363331
33	0x3ea0108c	0.31262624
34	0x3f18b820	0.5965595
35	0x3e33bdab	0.17552821
36	0x3f00c46c	0.50299716
37	0x3e61cda7	0.22051106
38	0x3ed661cd	0.4187149
39	0x3f00bdbe	0.50289524
40	0x3f12f5f9	0.57406574
41	0x3eeb9176	0.46009415
42	0x3e16416d	0.14673395
43	0x3f2a6c39	0.66571385
44	0x3e13e06d	0.1444108
45	0x3ee1a354	0.44069922
46	0x3ebf903b	0.37414727
47	0x3e9e3fc0	0.30908012
48	0x3e8f228d	0.27956048
49	0x3eb4dfc3	0.35326967
50	0x3f17a32e	0.5923337
51	0x3f0fadfa	0.5612484
52	0x3e978530	0.29593801
53	0x3ecfb086	0.40564364
54	0x3e86ed01	0.26352695
55	0x3ee6e410	0.45095873
56	0x3f14ac0d	0.5807503
57	0x3e86ffe3	0.263671
58	0x3f71198f	0.94179624
59	0x3f15a4a8	0.5845437

block2_1.ssn.bn.bias f4 [60]
0	0xbcde96d2	-0.027171526
1	0x3c91146f	0.017709939
2	0x3cd26691	0.025683673
3	0xbc6f915a	-0.014622057
4	0xbb05233b	-0.0020315188
5	0xbd93b473	-0.07212152
6	0x3d9c2d05	0.07625774
7	0xbd1636cc	-0.036673352
8	0x3d357b7f	0.04430723
9	0xbdabbfa9	-0.08386166
10	0x3c457ff0	0.012054428
11	0x3da6d3f7	0.08145898
12	0x3d0d8787	0.034553077
13	0xbe1bea09	-0.15225996
14	0xbd1bb3f7	-0.038013425
15	0xbeb627a7	-0.35577127
16	0xbddd032e	-0.10791622
17	0x3f8dcaa9	1.1077472
18	0xbea48961	-0.32136062
19	0x3e94487f	0.2896156
20	0x3d95f9ab	0.07323011
21	0x3d02b813	0.031913828
22	0xbe7fec11	-0.24992396
23	0x3e4a738e	0.19770643
24	0x3e9ca38f	0.30593535
25	0xbde6fd21	-0.11278749
26	0xbebf1f29	-0.3732846
27	0x3de4825d	0.11157677
28	0x3e3a671c	0.18203396
29	0xbd7a1422	-0.061054356
30	0x3dcbd34b	0.0995241
31	0x3f06d113	0.5266277
32	0x3f269e5f	0.65085405
33	0x3f3c75eb	0.7361743
34	0x3d881059	0.06643743
35	0xbd65f8a1	-0.056145314
36	0x3e67f139	0.22650613
37	0xbd1a93be	-0.037738554
38	0x3c40eb86	0.011774903
39	0x3e2c98ab	0.16855113
40	0xbcbbc139	-0.022919284
41	0x3e5c0826	0.21487483
42	0x3d9d2ce9	0.076745816
43	0x3ee1ba71	0.44087556
44	0xbe0bdad3	-0.13657694
45	0xbd67da81	-0.056604866
46	0xbdb9e950	-0.09077704
47	0xbda65a26	-0.08122663
48	0x3e8de001	0.27709964
49	0xbdc8aac1	-0.09798194
50	0x3e6bb293	0.2301734
51	0x3dbeb479	0.09311766
52	0x3cfc792d	0.0308195
53	0x3d79502f	0.060867485
54	0x3d0d1305	0.034441967
55	0xbd32955b	-0.043599468
56	0x3dbff119	0.093721576
57	0xbdfddc06	-0.12395482
58	0x3e98e5b6	0.29862756
59	0x3e7f558e	0.2493498

block2_1.ssn.bn.running_mean f4 [60]
0	0x3caec09e	0.021332081
1	0x3cb5b3b8	0.022180423
2	0x3c7b600b	0.015342723
3	0x3cf41ac6	0.029797923
4	0x3b7ae582	0.003828377
5	0xbe769e68	-0.24083865
6	0xbe286697	-0.16445385
7	0xbe3330e2	-0.17499116
8	0xbe05fdf8	-0.13085163
9	0xbd19cd5b	-0.037549358
10	0xbf21fc93	-0.6327602
11	0xbf4c9b1b	-0.7992417
12	0xbf4caec0	-0.7995415
13	0xbf38dd57	-0.7221274
14	0xbf4760ab	-0.7788188
15	0x3f45295a	0.7701622
16	0x3f17e21d	0.59329396
17	0x3f21c9f4	0.6319878
18	0x3ef69114	0.4815756
19	0x3efd3153	0.49451694
20	0xbe81455d	-0.25248232
21	0xbe8bcc1e	-0.27304167
22	0xbe90ad80	-0.2825737
23	0xbe889cdc	-0.26682174
24	0xbe80e3f7	-0.25173923
25	0x3e28aa4b	0.16471212
26	0x3e320bdf	0.17387341
27	0x3e9590a8	0.29211926
28	0x3e814c12	0.2525335
29	0x3f14c606	0.5811466
30	0x3dfa02e1	0.1220758
31	0xbe274926	-0.16336498
32	0xbe4f3b0b	-0.20237367
33	0xbe7c2b36	-0.24625859
34	0xbe993150	-0.29920435
35	0x3d7f5e1a	0.0623456
36	0x3e31c67d	0.17360874
37	0x3e32b5be	0.17452142
38	0x3e38e869	0.18057407
39	0x3de891a8	0.11355907
40	0x3d6c02b0	0.05761975
41	0x3e3cee7c	0.1845035
42	0x3e3315ca	0.1748878
43	0x3e2b4b81	0.16728021
44	0x3dc4c67b	0.0960817
45	0xbb4df0e5	-0.0031424102
46	0xbaf318ba	-0.0018546798
47	0xbb929034	-0.0044727568
48	0xbc5251ac	-0.012836855
49	0xbb45eb66	-0.0030200123
50	0xbdf8d280	-0.12149525
51	0xbdff6992	-0.12471308
52	0xbdf8640a	-0.12128456
53	0xbdee8af1	-0.11647595
54	0xbdff4c07	-0.12465673
55	0xbed71a86	-0.42012423
56	0xbf089a3a	-0.5336033
57	0xbf02c004	-0.5107424
58	0xbeea6269	-0.45778206
59	0xbee3e22c	-0.44508493

block2_1.ssn.bn.running_var f4 [60]
0	0x3b07d606	0.0020726933
1	0x3accb6a5	0.0015618397
2	0x3a7a5e86	0.0009550828
3	0x3b13f1b5	0.0022574489
4	0x3a42a0c7	0.00074244704
5	0x3dc4750b	0.09592637
6	0x3daa4ce8	0.0831545
7	0x3d914df2	0.07094945
8	0x3d6d8ed1	0.05799753
9	0x3c58e5b7	0.013238362
10	0x3d85285f	0.06501841
11	0x3d00b17a	0.031419255
12	0x3d448047	0.047973897
13	0x3d3f40ba	0.046692587
14	0x3d70ff72	0.05883736
15	0x3d8add5b	0.067805015
16	0x3d73d021	0.05952466
17	0x3dc3e0d8	0.0956437
18	0x3e014b69	0.12626423
19	0x3d6dc2b9	0.05804703
20	0x3ce1b80c	0.02755358
21	0x3d6ac655	0.05731805
22	0x3d5eb077	0.05436751
23	0x3d82bb71	0.06383408
24	0x3d327dcd	0.043577004
25	0x3dfe7798	0.124251544
26	0x3e4f6a3a	0.20255366
27	0x3e8c9f09	0.27465084
28	0x3ea8be1c	0.32957542
29	0x3f08781f	0.5330829
30	0x3e0765d1	0.13222434
31	0x3dbc3242	0.091892734
32	0x3e0cf274	0.13764364
33	0x3e4742f6	0.19459137
34	0x3e41f0d7	0.1893953
35	0x3c3458ee	0.011007531
36	0x3cf88667	0.030337526
37	0x3d0401b2	0.03222818
38	0x3d025db2	0.031827636
39	0x3ccba4f3	0.024858927
40	0x3c140e56	0.009036621
41	0x3c555cfc	0.0130226575
42	0x3c9dcf1a	0.019263793
43	0x3c9f91d5	0.019478718
44	0x3c20c267	0.009811974
45	0x3a68f721	0.0008886923
46	0x39ac4d1e	0.00032863853
47	0x3a9a7f77	0.0011787255
48	0x3bdcb2bf	0.0067351754
49	0x3a2fd025	0.0006706736
50	0x3c00e075	0.007866015
51	0x3c0ed8e9	0.008718708
52	0x3c128cdc	0.008944716
53	0x3c1c9e4d	0.009559226
54	0x3ba2bc54	0.004966298
55	0x3d86ccfe	0.06582068
56	0x3dce6fc7	0.100799136
57	0x3dec6570	0.11542785
58	0x3de0f825	0.1098483
59	0x3daf0ce4	0.085473806

block2_1.temp_dw_conv.weight f4 [12, 1, 1, 3]
0	0xbdaf8e54	-0.08572069
1	0xbe26feff	-0.16308211
2	0x3d4ab711	0.049490992
3	0x3e20a115	0.15686448
4	0x3e9f0b98	0.31063533
5	0xbef3bdee	-0.47605842
6	0xbd813a82	-0.063099876
7	0x3e9777fe	0.29583734
8	0x3dbbbdcd	0.09167061
9	0x3e09ea9f	0.13468407
10	0x3ddc6cd8	0.10762948
11	0x3cb224de	0.021746095
12	0x3c888c4e	0.016668465
13	0x3b1af601	0.0023645165
14	0xbf06904d	-0.52563936
15	0x3e443355	0.19160207
16	0x3d648174	0.05578752
17	0x3e4e6def	0.20159124
18	0xbe2d079d	-0.16897435
19	0xbdd5f953	-0.104479454
20	0xbbbd02ed	-0.005768171
21	0x3d7f1ff5	0.062286336
22	0x3f076d31	0.5290099
23	0x3cd430e9	0.025902228
24	0x3d982cfc	0.07430455
25	0x3c5197f6	0.012792578
26	0x3e3f75e7	0.1869732
27	0xbc80a5ab	-0.015703997
28	0xbe46ec24	-0.19426018
29	0xbdf62937	-0.1201958
30	0xbcb4b95a	-0.022061039
31	0x3f2c1cfe	0.6723174
32	0xbd638db0	-0.055555046
33	0xbc202c07	-0.009776122
34	0x3e0efd2e	0.13963768
35	0xbe878cf7	-0.26474735

block2_1.bn1.weight f4 [12]
0	0x3ec41e65	0.3830444
1	0x3ee022f3	0.43776664
2	0x3ec9cd04	0.39414227
3	0x3ed9096f	0.4239001
4	0x3ec1aabb	0.3782557
5	0x3f15396b	0.5829074
6	0x3f41f9f9	0.75772053
7	0x3eb9bf22	0.36278635
8	0x3ec35ad5	0.38155237
9	0xbe91eaf1	-0.2849956
10	0x3ed6e1ac	0.4196905
11	0x3ee0e1b7	0.43922207

block2_1.bn1.bias f4 [12]
0	0xbd2b3663	-0.041799914
1	0xbe14fb82	-0.14549068
2	0x3fbb642a	1.4639943
3	0x3ea70978	0.32624412
4	0x3ec87d3e	0.39158052
5	0x3e9af8fc	0.30268085
6	0xbdb52503	-0.0884495
7	0x3e61eaff	0.220623
8	0x3e5c6c5e	0.21525714
9	0xbf423c9f	-0.7587375
10	0x3e4ee735	0.20205386
11	0x3ed29455	0.41128793

block2_1.bn1.running_mean f4 [12]
0	0x3e7beacc	0.24601287
1	0xbe2c43b0	-0.16822696
2	0xbf9bf16a	-1.2183049
3	0xbf2d4635	-0.6768525
4	0x3eb1ee31	0.34752038
5	0x3eeef3fa	0.46670514
6	0x3f21a371	0.63140017
7	0x3cb6713c	0.022270791
8	0xbf3d49cd	-0.73940736
9	0xbf0976cd	-0.536969
10	0xbf2a7cc6	-0.6659664
11	0xbf6adbd6	-0.91741693

block2_1.bn1.running_var f4 [12]
0	0x3e03ac90	0.12858796
1	0x3e6ada3a	0.2293481
2	0x406d598b	3.7085903
3	0x3f39f3db	0.7263772
4	0x3ea96591	0.33085302
5	0x3f4d89d4	0.80288434
6	0x3f783f39	0.9697147
7	0x3e86a0ec	0.2629465
8	0x3f035ae2	0.5131055
9	0x3e88aa4b	0.26692423
10	0x3f0492f4	0.5178673
11	0x3f4f7cf8	0.8105006

block2_1.bn2.weight f4 [12]
0	0x3e33edc9	0.17571177
1	0x3ea7c0ae	0.3276419
2	0x3e0e7d16	0.13914904
3	0x3e144a44	0.14481455
4	0x3eae68af	0.34064242
5	0xbd2e723c	-0.04258941
6	0x3d689e36	0.056791507
7	0x3e6a1f5a	0.22863522
8	0x3e991570	0.29899168
9	0xbcbe9fb5	-0.023269514
10	0x3d587028	0.052841336
11	0x3da0b4f9	0.07847018

block2_1.bn2.bias f4 [12]
0	0xbe4f1e65	-0.20226438
1	0xbe00769f	-0.1254525
2	0xba488bdb	-0.00076502346
3	0xbe133d39	-0.14378823
4	0xbdc30180	-0.095217705
5	0xba3200b2	-0.0006790265
6	0xbdf19d8e	-0.11797629
7	0x3c04bc01	0.008101464
8	0xbd876cb7	-0.066125326
9	0xbd997082	-0.07492162
10	0xbe2ab8ff	-0.16672133
11	0xbe640f49	-0.22271456

block2_1.bn2.running_mean f4 [12]
0	0x3a08d32f	0.0005219457
1	0x3ade9c21	0.0016983786
2	0xbb76f731	-0.0037683959
3	0x3d04b5c5	0.03239991
4	0xbd16ea2d	-0.03684442
5	0xbcc0dca6	-0.023542713
6	0xbdeea3a1	-0.116523035
7	0x3d1cca78	0.038279027
8	0x3d016036	0.031585895
9	0x3b08b9ac	0.0020862622
10	0x3d5bd9ea	0.053674616
11	0xbc743cb8	-0.014907055

block2_1.bn2.running_var f4 [12]
0	0x3b410cec	0.0029457165
1	0x3b46b5c6	0.0030320748
2	0x3c5a2d20	0.013316423
3	0x3b464e59	0.0030259101
4	0x3d0a3460	0.033741355
5	0x3b5b1835	0.0033431177
6	0x3c0d1d68	0.008612968
7	0x3d23ac15	0.039959032
8	0x3b67d36c	0.003537382
9	0x3b343d97	0.002750253
10	0x3d28a5a7	0.041173603
11	0x3bb90f14	0.0056475494

block2_1.conv1x1_1.weight f4 [12, 8, 1, 1]
0	0x3d0379d3	0.032098603
1	0xbdee2480	-0.116280556
2	0xbd6a9abc	-0.057276472
3	0xbda8c7c2	-0.08241226
4	0x3e06b331	0.13154294
5	0x3e84ac2e	0.25912613
6	0x3c6eef58	0.014583431
7	0xbdcd60e1	-0.10028244
8	0x3d184189	0.037171874
9	0x3dfe09f3	0.124042414
10	0x3e1bc31d	0.15211149
11	0xbeac7fb3	-0.33691177
12	0xbec2d782	-0.38055044
13	0x3ea4cb27	0.32186243
14	0xbe1397ee	-0.14413425
15	0xbe106e53	-0.14104585
16	0x3ec5df78	0.38647056
17	0xbdf0dc65	-0.11760787
18	0xbebfd816	-0.37469548
19	0xbdb31e1f	-0.087459795
20	0xbf18a762	-0.59630406
21	0xbfa22ba7	-1.2669572
22	0x3f2b4554	0.6690266
23	0x3e35912a	0.17731157
24	0x3c40b04d	0.011760783
25	0xbe77b6b9	-0.24190797
26	0x3ed2193a	0.4103487
27	0xbe2999e2	-0.16562608
28	0xbf505a26	-0.81387556
29	0x3d44c3ed	0.048038412
30	0xbee8787a	-0.45404416
31	0x3e98cfe4	0.29846108
32	0xbc77407f	-0.015091061
33	0x3d8e00a4	0.06933716
34	0x3dc8c186	0.09802537
35	0xbd819d20	-0.06328797
36	0xbe28bb4d	-0.164777
37	0x3f0b35a3	0.5437872
38	0x3e87f964	0.26557457
39	0xbb58c860	-0.0033078417
40	0x3da0620d	0.07831202
41	0xbe4ab5c3	-0.19795899
42	0x3e028a05	0.12747963
43	0x3e4f3cd1	0.20238043
44	0x3f5c10bc	0.85963035
45	0xbee2ff7c	-0.44335544
46	0x3ee65904	0.4498979
47	0xbef98b24	-0.48738968
48	0xbd48eca6	-0.04905381
49	0xbe00e3cd	-0.12586899
50	0x3f3104c0	0.6914787
51	0xbe8bfcb6	-0.2734124
52	0xbd0579b1	-0.032586757
53	0x3f55745e	0.8338069
54	0xbd2bf3c8	-0.041980535
55	0x3d015bdd	0.03158175
56	0x3c7c1605	0.015386109
57	0x3d563f6c	0.052306578
58	0xbe78af84	-0.24285704
59	0xbe378ab2	-0.17924002
60	0xbe870e19	-0.26377943
61	0x3ee8859d	0.4541444
62	0xbd86ba36	-0.06578486
63	0xbd7dc65b	-0.061956745
64	0x3ce84be3	0.028356498
65	0xbe147e40	-0.14501286
66	0xbec71b98	-0.3888824
67	0x3e0248eb	0.12723128
68	0xbebd6375	-0.36989942
69	0xbee78347	-0.45217344
70	0xbe79869d	-0.24367757
71	0x3e695799	0.22787322
72	0xbdf2b3a0	-0.11850667
73	0x3c07d11b	0.008289601
74	0x3dc17546	0.09446196
75	0x3e1d4f71	0.15362336
76	0xbee4b8ff	-0.4467239
77	0xbcc26798	-0.023731038
78	0xbec64a21	-0.3872843
79	0xbde46520	-0.111521006
80	0xbe4e0e8b	-0.20122735
81	0x3e0ef26d	0.13959666
82	0xbe0db601	-0.1383896
83	0xbe2fec31	-0.17179944
84	0xbe835ca1	-0.25656608
85	0xbefe0a97	-0.49617454
86	0x3d8fda4a	0.07024057
87	0xbc7fe609	-0.0156188095
88	0xbcb05fe9	-0.021530109
89	0xbe47f98b	-0.19528787
90	0xbeb09ddb	-0.34495434
91	0xbdb6f4d9	-0.0893342
92	0xbed63e91	-0.4184461
93	0xbf16955e	-0.58821666
94	0x3ddb0d04	0.10695842
95	0xbdb4b6b3	-0.088239096

block2_1.conv1x1_2.weight f4 [12, 12, 1, 1]
0	0xbd526082	-0.05136157
1	0x3d8e9fee	0.06964098
2	0xbc6d6711	-0.014489905
3	0xbcfdc61d	-0.030978257
4	0xbd853b6b	-0.06505474
5	0xbd104929	-0.03522602
6	0xbdb48db4	-0.0881609
7	0xbd942944	-0.07234433
8	0xbdcbbb12	-0.0994779
9	0x3c48af36	0.012248805
10	0xbde64e87	-0.11245447
11	0xbd927b4d	-0.07152424
12	0xbc679d02	-0.014136555
13	0x3e5349cc	0.2063362
14	0xbc9fedc6	-0.019522559
15	0x3d3fc0b8	0.04681465
16	0x3e2a7269	0.16645207
17	0xbdc5ec56	-0.09664218
18	0x3d1969ab	0.03745429
19	0xbe0e83c9	-0.1391746
20	0xbd0f8631	-0.035040084
21	0x3da25d7b	0.07927986
22	0xbcfb14f4	-0.03064964
23	0x3c1b0536	0.009461692
24	0xbd39d211	-0.04536635
25	0xbdfcbc16	-0.12340562
26	0xbd9b05f5	-0.075694956
27	0xbdbbda27	-0.09172469
28	0xbe276645	-0.16347606
29	0xbc8452b0	-0.01615271
30	0x3d06c436	0.032901965
31	0xbb8c3001	-0.0042781834
32	0xbc339a5e	-0.010962097
33	0xbdb0b801	-0.08628846
34	0x3ea27aa9	0.31734207
35	0xbc4c33eb	-0.01246355
36	0xbcb66094	-0.022262849
37	0x3dc683c5	0.09693102
38	0x3d96bc31	0.073601134
39	0xbe1bfd21	-0.1523328
40	0x3dc5d2fd	0.096593834
41	0x3dbe815c	0.09302017
42	0x3e4045c1	0.18776609
43	0x3de100a6	0.10986452
44	0x3cd9f185	0.026604423
45	0xbdbdfc24	-0.09276608
46	0x3e125649	0.14290728
47	0xbcb1f301	-0.021722319
48	0x3c39dc23	0.011343989
49	0x3e098aac	0.13431805
50	0xbdb30b99	-0.087424465
51	0x3d3887d5	0.045051415
52	0x3dbb2e70	0.091397166
53	0xbe0c4010	-0.13696313
54	0xbe320a37	-0.17386709
55	0x3da10ce5	0.078637876
56	0xbcbb411b	-0.022858193
57	0x3d8f4274	0.06995097
58	0x3c12c5ee	0.008958323
59	0x3db577d3	0.08860745
60	0x3d9e4b6f	0.077292316
61	0x3e33de7f	0.17565344
62	0x3d906f45	0.07052473
63	0x3c251ac8	0.010077186
64	0x3e40b302	0.18818286
65	0xbd4d2bf5	-0.05009075
66	0xbd8530b2	-0.065034285
67	0x3e329cbb	0.174426
68	0xbe2ac570	-0.16676879
69	0xbd6a1a9a	-0.057154275
70	0x3c8d45fc	0.017245285
71	0xbd4b332b	-0.049609344
72	0xbde330c6	-0.11093287
73	0xbc6851b2	-0.014179634
74	0x3d98e675	0.07465831
75	0xbcce9412	-0.02521709
76	0x3ce8884e	0.028385308
77	0x3d4edf4b	0.050505918
78	0xbe46081a	-0.19339028
79	0x3e001e55	0.12511571
80	0xbd896dcb	-0.067103945
81	0xbd564c7b	-0.05231903
82	0xbdb43978	-0.08800024
83	0xbd3f5151	-0.04670841
84	0xbccb6358	-0.024827644
85	0xbdebcd57	-0.11513775
86	0xbdd3635f	-0.10321688
87	0xbdf8ca98	-0.12148017
88	0xbe1f3f7c	-0.15551561
89	0xbd31efe9	-0.043441687
90	0x3ae9cd86	0.001783774
91	0xbdeab9c7	-0.114612155
92	0x3dc5fac3	0.096669696
93	0x3c8b63d4	0.017015375
94	0xbd48396d	-0.04888289
95	0xbe173418	-0.14765966
96	0xbd75821e	-0.059938543
97	0x3b019915	0.0019775082
98	0x3d9e8449	0.07740075
99	0x3d92f269	0.07175142
100	0x3e32c0da	0.1745638
101	0xbc3267ab	-0.010888974
102	0x3dc19b3e	0.09453438
103	0x3d8d478d	0.06898413
104	0xbe5fbc24	-0.21849114
105	0x3b99b752	0.004691043
106	0x3dc994c0	0.09842825
107	0xbd93f8fc	-0.072252244
108	0x3d5f2ae8	0.054484278
109	0xbd97817b	-0.07397743
110	0xbcaecb28	-0.021337107
111	0x3de249a3	0.11049201
112	0xbdc70f00	-0.09719658
113	0xbca21942	-0.019787434
114	0x3c705f3d	0.014671144
115	0xbe35c70c	-0.17751712
116	0xbda520e8	-0.08062917
117	0x3b073878	0.0020633023
118	0x3c43fa64	0.011961553
119	0x3df59203	0.1199074
120	0x3ce741c5	0.028229604
121	0x3ccfa71e	0.025348242
122	0xbd43f2ef	-0.0478391
123	0xbd8935a8	-0.06699687
124	0xbda8045d	-0.08203957
125	0x3d70f157	0.05882391
126	0xbce24aa5	-0.027623484
127	0x3de766ae	0.112988815
128	0xbdaa7baf	-0.08324372
129	0x3dbe109a	0.0928051
130	0x3d353971	0.044244234
131	0x3e016a9c	0.12638324
132	0x3b9931ee	0.0046751415
133	0x3ed43469	0.41446236
134	0x3e1b6205	0.1517411
135	0x3db621f6	0.08893196
136	0x3e846ecd	0.25865784
137	0xbb79cfea	-0.0038118311
138	0xbdd03a44	-0.10167363
139	0xbd0d73d8	-0.034534305
140	0x3c1bb776	0.00950419
141	0xbccbdf23	-0.024886673
142	0xbd91da26	-0.07121687
143	0xbe1196f1	-0.14217736

block2_2.freq_dw_conv.weight f4 [12, 1, 3, 1]
0	0xbdf9943d	-0.12186477
1	0xbd210977	-0.039315667
2	0xbe43f485	-0.19136246
3	0xbe70731b	-0.23481409
4	0xbe6f4642	-0.23366645
5	0x3d417e3b	0.047239523
6	0x3db4ff4b	0.08837756
7	0x3eb495b5	0.35270467
8	0x3d9fd422	0.07804133
9	0xbf4d9a14	-0.8031323
10	0x3d9231b9	0.0713839
11	0xbebda871	-0.37042573
12	0xbeed1af1	-0.46309617
13	0xbe5aba31	-0.21360089
14	0x3e865f9f	0.26244828
15	0xbdfe637e	-0.124213204
16	0x3f32fbc3	0.6991541
17	0x3ee64b7b	0.44979462
18	0x3e975b37	0.2956178
19	0xbc29248e	-0.010323657
20	0xbf70817f	-0.93947595
21	0xbe0a05c1	-0.13478757
22	0xbd80426e	-0.062626705
23	0x3f062a59	0.5240837
24	0xbf030033	-0.5117218
25	0xbe45a968	-0.19302905
26	0x3eb957e7	0.36199877
27	0xbd1f7175	-0.03892656
28	0xbef7bee4	-0.48387825
29	0x3ebc4d28	0.36777616
30	0xbeb87154	-0.36023962
31	0x3c80060c	0.015627883
32	0xbd63f82a	-0.05565659
33	0x3f126c88	0.57196856
34	0x3e7082bb	0.2348737
35	0xbd8cb45c	-0.06870338

block2_2.ssn1.bn.weight f4 [60]
0	0x3e90e291	0.28297856
1	0x3ec3db88	0.38253427
2	0x3ec0d097	0.3765914
3	0x3edb5bff	0.42843625
4	0x3eda678d	0.42657128
5	0x3e9de583	0.30839166
6	0x3ee1de14	0.44114745
7	0x3eb7527c	0.35805118
8	0x3ee7515c	0.4517926
9	0x3ecd528f	0.4010205
10	0x3e570431	0.20997693
11	0x3eddf234	0.4334885
12	0x3e4709e2	0.19437364
13	0x3e883f27	0.2661068
14	0x3f0192d9	0.50614697
15	0x3ed275d0	0.4110551
16	0x3db93541	0.090433605
17	0x3f0aa89d	0.54163533
18	0x3e065ed4	0.13122112
19	0x3ee2d832	0.4430557
20	0x3ebfede6	0.3748619
21	0x3f3ac5d1	0.72958094
22	0x3f097b2d	0.53703576
23	0x3e92a12a	0.28638583
24	0x3e827138	0.25477004
25	0x3f1d6624	0.6148398
26	0xbdcc01fe	-0.099613175
27	0xbf1f3fb5	-0.62206584
28	0x3f1903dc	0.59771514
29	0x3e8fa341	0.2805424
30	0x3eebdbc2	0.460661
31	0x3eef24c5	0.4670774
32	0x3f641324	0.89091706
33	0x3f127c9e	0.572214
34	0x3eb8ff3a	0.36132222
35	0x3ec4d3ba	0.38442785
36	0x3f0cbcd8	0.5497565
37	0x3ed4fc8f	0.41598937
38	0x3ec78790	0.38970613
39	0x3e9a35e4	0.3011924
40	0x3ec40aee	0.3828959
41	0x3eeccf2a	0.46251804
42	0x3f2bc24a	0.67093337
43	0x3ed3430b	0.41262087
44	0x3eb7a77d	0.3586997
45	0x3e705528	0.23469985
46	0x3ee57519	0.448159
47	0x3edba598	0.42899776
48	0x3ef1f2f4	0.4725567
49	0x3edfe28e	0.43727535
50	0x3ec85f5a	0.39135247
51	0x3ead62ef	0.33864543
52	0x3f09f06b	0.53882474
53	0x3e23441c	0.1594395
54	0x3ebe84e2	0.37210757
55	0x3ee01faa	0.43774158
56	0x3ec687d1	0.38775495
57	0x3f40e022	0.75342
58	0x3e90c484	0.2827493
59	0x3e9fad69	0.3118699

block2_2.ssn1.bn.bias f4 [60]
0	0xbdcd669f	-0.10029339
1	0xbc80cbf6	-0.015722256
2	0xbc35f192	-0.011104958
3	0x3d2d8e81	0.04237223
4	0x3ca708d0	0.020389944
5	0xbd2b6e44	-0.041853204
6	0xbd7c38ba	-0.061577536
7	0xbd303f1b	-0.043028932
8	0x3b6c283c	0.0036034724
9	0xbc503afd	-0.012709376
10	0x3c37847b	0.011201019
11	0x3de2a995	0.110675015
12	0xbd3d5d39	-0.046231482
13	0xbdc49992	-0.09599604
14	0x3c53a9d2	0.012918906
15	0xbc428592	-0.011872666
16	0xbd5c289a	-0.05374966
17	0x3ee90137	0.4550874
18	0x3e519afe	0.20469281
19	0x3e2fa595	0.17153008
20	0x3da2e7d4	0.07954374
21	0x3d1b18bc	0.037865385
22	0x3d9fb808	0.07798773
23	0xbb7500fa	-0.0037384615
24	0x3debc912	0.115129605
25	0xbc9292b6	-0.017892223
26	0xbe77cc78	-0.24199092
27	0xbe8f08f2	-0.27936512
28	0x3d795d4d	0.060879994
29	0x3cb44452	0.022005234
30	0x3cff8f41	0.031196238
31	0xbc00d20c	-0.007862579
32	0x3e3b7a2c	0.18308324
33	0xbe0019b3	-0.12509803
34	0xbd9328f6	-0.07185547
35	0x3d06c0ea	0.03289882
36	0x3cf546ca	0.029940981
37	0xbcc95498	-0.02457647
38	0x3d0747e5	0.03302755
39	0x3b97d34c	0.004633343
40	0x3e681dbb	0.22667591
41	0x3ca9b0b5	0.020714143
42	0x3e7eb155	0.24872334
43	0x3dfe6b0d	0.12422762
44	0xbc1c09f9	-0.009523862
45	0xbca57353	-0.020196592
46	0x3d0d2c64	0.034466162
47	0x3da350d5	0.07974402
48	0xbe062ecd	-0.1310379
49	0x3cebd2fa	0.028787125
50	0x3d54d886	0.051964305
51	0x3d960206	0.07324605
52	0x3c771f8c	0.015083205
53	0xbe2dad3f	-0.1696062
54	0xbcf92d28	-0.03041704
55	0xbd75e7ca	-0.060035504
56	0x3dd5b424	0.1043475
57	0x3d907785	0.070540465
58	0x3e9fefaa	0.31237537
59	0x3e5d3fc5	0.21606357

block2_2.ssn1.bn.running_mean f4 [60]
0	0xbd393699	-0.045218084
1	0xbd456c3d	-0.048198927
2	0xbd728ac2	-0.05921436
3	0xbd66ce8e	-0.05634933
4	0xbcccb775	-0.024989823
5	0xbd29bb99	-0.041438673
6	0xbd9f143a	-0.0776753
7	0xbd76e272	-0.06027455
8	0xbd4f4f8d	-0.050612975
9	0xbc974078	-0.018463358
10	0x3dbcfa41	0.0922742
11	0x3df1eac3	0.11812355
12	0x3daa217a	0.083071664
13	0x3d65f743	0.05614401
14	0x3d86e06f	0.06585776
15	0xbd5dc8a9	-0.054146443
16	0xbeaab811	-0.33343557
17	0xbf22c97e	-0.635887
18	0xbf06b221	-0.52615553
19	0xbe5eb49d	-0.21748586
20	0xbd92b2c7	-0.07163005
21	0xbde7d517	-0.113199405
22	0xbc0c06d3	-0.008546549
23	0xbd54a164	-0.051911727
24	0xbe3c2a26	-0.18375453
25	0x3e73b48a	0.23799339
26	0x3ca93c6e	0.020658698
27	0x3e2d9911	0.16952921
28	0x3eff028d	0.49806634
29	0xba6ad1a0	-0.0008957628
30	0xbe7c6ed0	-0.24651647
31	0xbf150ed6	-0.5822576
32	0xbf089be5	-0.53362876
33	0xbe9103df	-0.28323266
34	0x3cb0ccbe	0.021582004
35	0x3dcf61a8	0.10126048
36	0x3d5aaf39	0.05338976
37	0x3d2052be	0.03914141
38	0x3db6a6ab	0.08918508
39	0x3becc836	0.0072260154
40	0x3ddce5c4	0.10786012
41	0xbe629557	-0.22127281
42	0x3cc8f92e	0.02453288
43	0xbe5773b9	-0.21040238
44	0xbdec8ca7	-0.11550265
45	0xba04dd69	-0.0005068393
46	0xb7e1e9fe	-2.6931051e-05
47	0x3d5a6b2c	0.053324863
48	0xbdbb845a	-0.091561034
49	0xbba23647	-0.004950318
50	0xbdc0a75c	-0.09406921
51	0xbdde2dca	-0.10848577
52	0xbdac42a1	-0.08411146
53	0xbd8bbc38	-0.06823009
54	0xbda002ff	-0.078130715
55	0x3dfde63b	0.123974286
56	0x3e2e31d3	0.17011194
57	0x3e0ba8b4	0.13638574
58	0x3e9b1841	0.30291942
59	0x3ebad884	0.36493313
